…
I0907 06:36:36.134503 13343 solver.cpp:58] Creating training net from train_net file: food17/config/food17/train_train.prototxt
I0907 06:36:36.134912 13343 net.cpp:39] Initializing net from parameters: 
name: "food17"
layers {
  top: "data"
  top: "label"
  name: "data"
  type: IMAGE_SEG_DATA
  image_data_param {
    source: "food17/list/train.txt"
    batch_size: 1
    shuffle: true
    root_folder: "/home/khanhngan/tuan.khai/DeepLab-Context/food_data"
    label_type: PIXEL
  }
  include {
    phase: TRAIN
  }
  transform_param {
    mirror: true
    crop_size: 321
    mean_value: 104.008
    mean_value: 116.669
    mean_value: 122.675
  }
}
layers {
  bottom: "data"
  top: "conv1_1"
  name: "conv1_1"
  type: CONVOLUTION
  blobs_lr: 1
  blobs_lr: 2
  weight_decay: 1
  weight_decay: 0
  convolution_param {
    num_output: 64
    pad: 1
    kernel_size: 3
  }
}
layers {
  bottom: "conv1_1"
  top: "conv1_1"
  name: "relu1_1"
  type: RELU
}
layers {
  bottom: "conv1_1"
  top: "conv1_2"
  name: "conv1_2"
  type: CONVOLUTION
  blobs_lr: 1
  blobs_lr: 2
  weight_decay: 1
  weight_decay: 0
  convolution_param {
    num_output: 64
    pad: 1
    kernel_size: 3
  }
}
layers {
  bottom: "conv1_2"
  top: "conv1_2"
  name: "relu1_2"
  type: RELU
}
layers {
  bottom: "conv1_2"
  top: "pool1"
  name: "pool1"
  type: POOLING
  pooling_param {
    pool: MAX
    kernel_size: 3
    stride: 2
    pad: 1
  }
}
layers {
  bottom: "pool1"
  top: "conv2_1"
  name: "conv2_1"
  type: CONVOLUTION
  blobs_lr: 1
  blobs_lr: 2
  weight_decay: 1
  weight_decay: 0
  convolution_param {
    num_output: 128
    pad: 1
    kernel_size: 3
  }
}
layers {
  bottom: "conv2_1"
  top: "conv2_1"
  name: "relu2_1"
  type: RELU
}
layers {
  bottom: "conv2_1"
  top: "conv2_2"
  name: "conv2_2"
  type: CONVOLUTION
  blobs_lr: 1
  blobs_lr: 2
  weight_decay: 1
  weight_decay: 0
  convolution_param {
    num_output: 128
    pad: 1
    kernel_size: 3
  }
}
layers {
  bottom: "conv2_2"
  top: "conv2_2"
  name: "relu2_2"
  type: RELU
}
layers {
  bottom: "conv2_2"
  top: "pool2"
  name: "pool2"
  type: POOLING
  pooling_param {
    pool: MAX
    kernel_size: 3
    stride: 2
    pad: 1
  }
}
layers {
  bottom: "pool2"
  top: "conv3_1"
  name: "conv3_1"
  type: CONVOLUTION
  blobs_lr: 1
  blobs_lr: 2
  weight_decay: 1
  weight_decay: 0
  convolution_param {
    num_output: 256
    pad: 1
    kernel_size: 3
  }
}
layers {
  bottom: "conv3_1"
  top: "conv3_1"
  name: "relu3_1"
  type: RELU
}
layers {
  bottom: "conv3_1"
  top: "conv3_2"
  name: "conv3_2"
  type: CONVOLUTION
  blobs_lr: 1
  blobs_lr: 2
  weight_decay: 1
  weight_decay: 0
  convolution_param {
    num_output: 256
    pad: 1
    kernel_size: 3
  }
}
layers {
  bottom: "conv3_2"
  top: "conv3_2"
  name: "relu3_2"
  type: RELU
}
layers {
  bottom: "conv3_2"
  top: "conv3_3"
  name: "conv3_3"
  type: CONVOLUTION
  blobs_lr: 1
  blobs_lr: 2
  weight_decay: 1
  weight_decay: 0
  convolution_param {
    num_output: 256
    pad: 1
    kernel_size: 3
  }
}
layers {
  bottom: "conv3_3"
  top: "conv3_3"
  name: "relu3_3"
  type: RELU
}
layers {
  bottom: "conv3_3"
  top: "pool3"
  name: "pool3"
  type: POOLING
  pooling_param {
    pool: MAX
    kernel_size: 3
    stride: 2
    pad: 1
  }
}
layers {
  bottom: "pool3"
  top: "conv4_1"
  name: "conv4_1"
  type: CONVOLUTION
  blobs_lr: 1
  blobs_lr: 2
  weight_decay: 1
  weight_decay: 0
  convolution_param {
    num_output: 512
    pad: 1
    kernel_size: 3
  }
}
layers {
  bottom: "conv4_1"
  top: "conv4_1"
  name: "relu4_1"
  type: RELU
}
layers {
  bottom: "conv4_1"
  top: "conv4_2"
  name: "conv4_2"
  type: CONVOLUTION
  blobs_lr: 1
  blobs_lr: 2
  weight_decay: 1
  weight_decay: 0
  convolution_param {
    num_output: 512
    pad: 1
    kernel_size: 3
  }
}
layers {
  bottom: "conv4_2"
  top: "conv4_2"
  name: "relu4_2"
  type: RELU
}
layers {
  bottom: "conv4_2"
  top: "conv4_3"
  name: "conv4_3"
  type: CONVOLUTION
  blobs_lr: 1
  blobs_lr: 2
  weight_decay: 1
  weight_decay: 0
  convolution_param {
    num_output: 512
    pad: 1
    kernel_size: 3
  }
}
layers {
  bottom: "conv4_3"
  top: "conv4_3"
  name: "relu4_3"
  type: RELU
}
layers {
  bottom: "conv4_3"
  top: "pool4"
  name: "pool4"
  type: POOLING
  pooling_param {
    pool: MAX
    kernel_size: 3
    stride: 1
    pad: 1
  }
}
layers {
  bottom: "pool4"
  top: "conv5_1"
  name: "conv5_1"
  type: CONVOLUTION
  blobs_lr: 1
  blobs_lr: 2
  weight_decay: 1
  weight_decay: 0
  convolution_param {
    num_output: 512
    pad: 2
    kernel_size: 3
    hole: 2
  }
}
layers {
  bottom: "conv5_1"
  top: "conv5_1"
  name: "relu5_1"
  type: RELU
}
layers {
  bottom: "conv5_1"
  top: "conv5_2"
  name: "conv5_2"
  type: CONVOLUTION
  blobs_lr: 1
  blobs_lr: 2
  weight_decay: 1
  weight_decay: 0
  convolution_param {
    num_output: 512
    pad: 2
    kernel_size: 3
    hole: 2
  }
}
layers {
  bottom: "conv5_2"
  top: "conv5_2"
  name: "relu5_2"
  type: RELU
}
layers {
  bottom: "conv5_2"
  top: "conv5_3"
  name: "conv5_3"
  type: CONVOLUTION
  blobs_lr: 1
  blobs_lr: 2
  weight_decay: 1
  weight_decay: 0
  convolution_param {
    num_output: 512
    pad: 2
    kernel_size: 3
    hole: 2
  }
}
layers {
  bottom: "conv5_3"
  top: "conv5_3"
  name: "relu5_3"
  type: RELU
}
layers {
  bottom: "conv5_3"
  top: "pool5"
  name: "pool5"
  type: POOLING
  pooling_param {
    pool: MAX
    kernel_size: 3
    stride: 1
    pad: 1
  }
}
layers {
  bottom: "pool5"
  top: "pool5a"
  name: "pool5a"
  type: POOLING
  pooling_param {
    pool: AVE
    kernel_size: 3
    stride: 1
    pad: 1
  }
}
layers {
  bottom: "pool5a"
  top: "fc6"
  name: "fc6"
  type: CONVOLUTION
  blobs_lr: 1
  blobs_lr: 2
  weight_decay: 1
  weight_decay: 0
  convolution_param {
    num_output: 1024
    pad: 12
    kernel_size: 3
    hole: 12
  }
}
layers {
  bottom: "fc6"
  top: "fc6"
  name: "relu6"
  type: RELU
}
layers {
  bottom: "fc6"
  top: "fc6"
  name: "drop6"
  type: DROPOUT
  dropout_param {
    dropout_ratio: 0.5
  }
}
layers {
  bottom: "fc6"
  top: "fc7"
  name: "fc7"
  type: CONVOLUTION
  blobs_lr: 1
  blobs_lr: 2
  weight_decay: 1
  weight_decay: 0
  convolution_param {
    num_output: 1024
    kernel_size: 1
  }
}
layers {
  bottom: "fc7"
  top: "fc7"
  name: "relu7"
  type: RELU
}
layers {
  bottom: "fc7"
  top: "fc7"
  name: "drop7"
  type: DROPOUT
  dropout_param {
    dropout_ratio: 0.5
  }
}
layers {
  bottom: "fc7"
  top: "fc8_food17"
  name: "fc8_food17"
  type: CONVOLUTION
  blobs_lr: 10
  blobs_lr: 20
  weight_decay: 1
  weight_decay: 0
  convolution_param {
    num_output: 18
    kernel_size: 1
    weight_filler {
      type: "gaussian"
      std: 0.01
    }
    bias_filler {
      type: "constant"
      value: 0
    }
  }
}
layers {
  bottom: "label"
  top: "label_shrink"
  name: "label_shrink"
  type: INTERP
  interp_param {
    shrink_factor: 8
    pad_beg: 0
    pad_end: 0
  }
}
layers {
  bottom: "fc8_food17"
  bottom: "label_shrink"
  name: "loss"
  type: SOFTMAX_LOSS
  include {
    phase: TRAIN
  }
  softmaxloss_param {
    ignore_label: 255
  }
}
layers {
  bottom: "fc8_food17"
  bottom: "label_shrink"
  top: "accuracy"
  name: "accuracy"
  type: SEG_ACCURACY
  seg_accuracy_param {
    ignore_label: 255
  }
}
state {
  phase: TRAIN
}
I0907 06:36:36.135211 13343 layer_factory.hpp:78] Creating layer data
I0907 06:36:36.135231 13343 net.cpp:67] Creating Layer data
I0907 06:36:36.135237 13343 net.cpp:356] data -> data
I0907 06:36:36.135249 13343 net.cpp:356] data -> label
I0907 06:36:36.135260 13343 net.cpp:356] data -> (automatic)
I0907 06:36:36.135267 13343 net.cpp:96] Setting up data
I0907 06:36:36.135272 13343 image_seg_data_layer.cpp:45] Opening file food17/list/train.txt
I0907 06:36:36.138351 13343 image_seg_data_layer.cpp:62] Shuffling data
I0907 06:36:36.138846 13343 image_seg_data_layer.cpp:67] A total of 2594 images.
I0907 06:36:36.140295 13343 image_seg_data_layer.cpp:113] output data size: 1,3,321,321
I0907 06:36:36.140305 13343 image_seg_data_layer.cpp:117] output label size: 1,1,321,321
I0907 06:36:36.140310 13343 image_seg_data_layer.cpp:121] output data_dim size: 1,1,1,2
I0907 06:36:36.140473 13343 net.cpp:103] Top shape: 1 3 321 321 (309123)
I0907 06:36:36.140480 13343 net.cpp:103] Top shape: 1 1 321 321 (103041)
I0907 06:36:36.140486 13343 net.cpp:103] Top shape: 1 1 1 2 (2)
I0907 06:36:36.140491 13343 layer_factory.hpp:78] Creating layer conv1_1
I0907 06:36:36.140504 13343 net.cpp:67] Creating Layer conv1_1
I0907 06:36:36.140511 13343 net.cpp:394] conv1_1 <- data
I0907 06:36:36.140529 13343 net.cpp:356] conv1_1 -> conv1_1
I0907 06:36:36.140544 13343 net.cpp:96] Setting up conv1_1
I0907 06:36:36.140689 13343 net.cpp:103] Top shape: 1 64 321 321 (6594624)
I0907 06:36:36.140704 13343 layer_factory.hpp:78] Creating layer relu1_1
I0907 06:36:36.140712 13343 net.cpp:67] Creating Layer relu1_1
I0907 06:36:36.140718 13343 net.cpp:394] relu1_1 <- conv1_1
I0907 06:36:36.140725 13343 net.cpp:345] relu1_1 -> conv1_1 (in-place)
I0907 06:36:36.140733 13343 net.cpp:96] Setting up relu1_1
I0907 06:36:36.140741 13343 net.cpp:103] Top shape: 1 64 321 321 (6594624)
I0907 06:36:36.140748 13343 layer_factory.hpp:78] Creating layer conv1_2
I0907 06:36:36.140754 13343 net.cpp:67] Creating Layer conv1_2
I0907 06:36:36.140759 13343 net.cpp:394] conv1_2 <- conv1_1
I0907 06:36:36.140766 13343 net.cpp:356] conv1_2 -> conv1_2
I0907 06:36:36.140775 13343 net.cpp:96] Setting up conv1_2
I0907 06:36:36.140974 13343 net.cpp:103] Top shape: 1 64 321 321 (6594624)
I0907 06:36:36.140985 13343 layer_factory.hpp:78] Creating layer relu1_2
I0907 06:36:36.140992 13343 net.cpp:67] Creating Layer relu1_2
I0907 06:36:36.140997 13343 net.cpp:394] relu1_2 <- conv1_2
I0907 06:36:36.141005 13343 net.cpp:345] relu1_2 -> conv1_2 (in-place)
I0907 06:36:36.141011 13343 net.cpp:96] Setting up relu1_2
I0907 06:36:36.141016 13343 net.cpp:103] Top shape: 1 64 321 321 (6594624)
I0907 06:36:36.141021 13343 layer_factory.hpp:78] Creating layer pool1
I0907 06:36:36.141028 13343 net.cpp:67] Creating Layer pool1
I0907 06:36:36.141033 13343 net.cpp:394] pool1 <- conv1_2
I0907 06:36:36.141039 13343 net.cpp:356] pool1 -> pool1
I0907 06:36:36.141047 13343 net.cpp:96] Setting up pool1
I0907 06:36:36.141062 13343 net.cpp:103] Top shape: 1 64 161 161 (1658944)
I0907 06:36:36.141067 13343 layer_factory.hpp:78] Creating layer conv2_1
I0907 06:36:36.141074 13343 net.cpp:67] Creating Layer conv2_1
I0907 06:36:36.141079 13343 net.cpp:394] conv2_1 <- pool1
I0907 06:36:36.141086 13343 net.cpp:356] conv2_1 -> conv2_1
I0907 06:36:36.141094 13343 net.cpp:96] Setting up conv2_1
I0907 06:36:36.141283 13343 net.cpp:103] Top shape: 1 128 161 161 (3317888)
I0907 06:36:36.141294 13343 layer_factory.hpp:78] Creating layer relu2_1
I0907 06:36:36.141299 13343 net.cpp:67] Creating Layer relu2_1
I0907 06:36:36.141304 13343 net.cpp:394] relu2_1 <- conv2_1
I0907 06:36:36.141311 13343 net.cpp:345] relu2_1 -> conv2_1 (in-place)
I0907 06:36:36.141319 13343 net.cpp:96] Setting up relu2_1
I0907 06:36:36.141324 13343 net.cpp:103] Top shape: 1 128 161 161 (3317888)
I0907 06:36:36.141330 13343 layer_factory.hpp:78] Creating layer conv2_2
I0907 06:36:36.141337 13343 net.cpp:67] Creating Layer conv2_2
I0907 06:36:36.141342 13343 net.cpp:394] conv2_2 <- conv2_1
I0907 06:36:36.141348 13343 net.cpp:356] conv2_2 -> conv2_2
I0907 06:36:36.141356 13343 net.cpp:96] Setting up conv2_2
I0907 06:36:36.141623 13343 net.cpp:103] Top shape: 1 128 161 161 (3317888)
I0907 06:36:36.141630 13343 layer_factory.hpp:78] Creating layer relu2_2
I0907 06:36:36.141635 13343 net.cpp:67] Creating Layer relu2_2
I0907 06:36:36.141640 13343 net.cpp:394] relu2_2 <- conv2_2
I0907 06:36:36.141646 13343 net.cpp:345] relu2_2 -> conv2_2 (in-place)
I0907 06:36:36.141654 13343 net.cpp:96] Setting up relu2_2
I0907 06:36:36.141659 13343 net.cpp:103] Top shape: 1 128 161 161 (3317888)
I0907 06:36:36.141664 13343 layer_factory.hpp:78] Creating layer pool2
I0907 06:36:36.141690 13343 net.cpp:67] Creating Layer pool2
I0907 06:36:36.141695 13343 net.cpp:394] pool2 <- conv2_2
I0907 06:36:36.141701 13343 net.cpp:356] pool2 -> pool2
I0907 06:36:36.141711 13343 net.cpp:96] Setting up pool2
I0907 06:36:36.141718 13343 net.cpp:103] Top shape: 1 128 81 81 (839808)
I0907 06:36:36.141724 13343 layer_factory.hpp:78] Creating layer conv3_1
I0907 06:36:36.141731 13343 net.cpp:67] Creating Layer conv3_1
I0907 06:36:36.141736 13343 net.cpp:394] conv3_1 <- pool2
I0907 06:36:36.141747 13343 net.cpp:356] conv3_1 -> conv3_1
I0907 06:36:36.141755 13343 net.cpp:96] Setting up conv3_1
I0907 06:36:36.142196 13343 net.cpp:103] Top shape: 1 256 81 81 (1679616)
I0907 06:36:36.142210 13343 layer_factory.hpp:78] Creating layer relu3_1
I0907 06:36:36.142216 13343 net.cpp:67] Creating Layer relu3_1
I0907 06:36:36.142221 13343 net.cpp:394] relu3_1 <- conv3_1
I0907 06:36:36.142227 13343 net.cpp:345] relu3_1 -> conv3_1 (in-place)
I0907 06:36:36.142235 13343 net.cpp:96] Setting up relu3_1
I0907 06:36:36.142241 13343 net.cpp:103] Top shape: 1 256 81 81 (1679616)
I0907 06:36:36.142246 13343 layer_factory.hpp:78] Creating layer conv3_2
I0907 06:36:36.142251 13343 net.cpp:67] Creating Layer conv3_2
I0907 06:36:36.142256 13343 net.cpp:394] conv3_2 <- conv3_1
I0907 06:36:36.142263 13343 net.cpp:356] conv3_2 -> conv3_2
I0907 06:36:36.142271 13343 net.cpp:96] Setting up conv3_2
I0907 06:36:36.143044 13343 net.cpp:103] Top shape: 1 256 81 81 (1679616)
I0907 06:36:36.143059 13343 layer_factory.hpp:78] Creating layer relu3_2
I0907 06:36:36.143066 13343 net.cpp:67] Creating Layer relu3_2
I0907 06:36:36.143070 13343 net.cpp:394] relu3_2 <- conv3_2
I0907 06:36:36.143079 13343 net.cpp:345] relu3_2 -> conv3_2 (in-place)
I0907 06:36:36.143085 13343 net.cpp:96] Setting up relu3_2
I0907 06:36:36.143091 13343 net.cpp:103] Top shape: 1 256 81 81 (1679616)
I0907 06:36:36.143095 13343 layer_factory.hpp:78] Creating layer conv3_3
I0907 06:36:36.143100 13343 net.cpp:67] Creating Layer conv3_3
I0907 06:36:36.143105 13343 net.cpp:394] conv3_3 <- conv3_2
I0907 06:36:36.143112 13343 net.cpp:356] conv3_3 -> conv3_3
I0907 06:36:36.143121 13343 net.cpp:96] Setting up conv3_3
I0907 06:36:36.143985 13343 net.cpp:103] Top shape: 1 256 81 81 (1679616)
I0907 06:36:36.144001 13343 layer_factory.hpp:78] Creating layer relu3_3
I0907 06:36:36.144011 13343 net.cpp:67] Creating Layer relu3_3
I0907 06:36:36.144016 13343 net.cpp:394] relu3_3 <- conv3_3
I0907 06:36:36.144022 13343 net.cpp:345] relu3_3 -> conv3_3 (in-place)
I0907 06:36:36.144031 13343 net.cpp:96] Setting up relu3_3
I0907 06:36:36.144035 13343 net.cpp:103] Top shape: 1 256 81 81 (1679616)
I0907 06:36:36.144040 13343 layer_factory.hpp:78] Creating layer pool3
I0907 06:36:36.144047 13343 net.cpp:67] Creating Layer pool3
I0907 06:36:36.144054 13343 net.cpp:394] pool3 <- conv3_3
I0907 06:36:36.144062 13343 net.cpp:356] pool3 -> pool3
I0907 06:36:36.144070 13343 net.cpp:96] Setting up pool3
I0907 06:36:36.144078 13343 net.cpp:103] Top shape: 1 256 41 41 (430336)
I0907 06:36:36.144083 13343 layer_factory.hpp:78] Creating layer conv4_1
I0907 06:36:36.144089 13343 net.cpp:67] Creating Layer conv4_1
I0907 06:36:36.144094 13343 net.cpp:394] conv4_1 <- pool3
I0907 06:36:36.144101 13343 net.cpp:356] conv4_1 -> conv4_1
I0907 06:36:36.144109 13343 net.cpp:96] Setting up conv4_1
I0907 06:36:36.145449 13343 net.cpp:103] Top shape: 1 512 41 41 (860672)
I0907 06:36:36.145489 13343 layer_factory.hpp:78] Creating layer relu4_1
I0907 06:36:36.145498 13343 net.cpp:67] Creating Layer relu4_1
I0907 06:36:36.145503 13343 net.cpp:394] relu4_1 <- conv4_1
I0907 06:36:36.145509 13343 net.cpp:345] relu4_1 -> conv4_1 (in-place)
I0907 06:36:36.145516 13343 net.cpp:96] Setting up relu4_1
I0907 06:36:36.145521 13343 net.cpp:103] Top shape: 1 512 41 41 (860672)
I0907 06:36:36.145525 13343 layer_factory.hpp:78] Creating layer conv4_2
I0907 06:36:36.145531 13343 net.cpp:67] Creating Layer conv4_2
I0907 06:36:36.145535 13343 net.cpp:394] conv4_2 <- conv4_1
I0907 06:36:36.145541 13343 net.cpp:356] conv4_2 -> conv4_2
I0907 06:36:36.145565 13343 net.cpp:96] Setting up conv4_2
I0907 06:36:36.148213 13343 net.cpp:103] Top shape: 1 512 41 41 (860672)
I0907 06:36:36.148336 13343 layer_factory.hpp:78] Creating layer relu4_2
I0907 06:36:36.148373 13343 net.cpp:67] Creating Layer relu4_2
I0907 06:36:36.148380 13343 net.cpp:394] relu4_2 <- conv4_2
I0907 06:36:36.148391 13343 net.cpp:345] relu4_2 -> conv4_2 (in-place)
I0907 06:36:36.148402 13343 net.cpp:96] Setting up relu4_2
I0907 06:36:36.148408 13343 net.cpp:103] Top shape: 1 512 41 41 (860672)
I0907 06:36:36.148413 13343 layer_factory.hpp:78] Creating layer conv4_3
I0907 06:36:36.148422 13343 net.cpp:67] Creating Layer conv4_3
I0907 06:36:36.148427 13343 net.cpp:394] conv4_3 <- conv4_2
I0907 06:36:36.148433 13343 net.cpp:356] conv4_3 -> conv4_3
I0907 06:36:36.148440 13343 net.cpp:96] Setting up conv4_3
I0907 06:36:36.151149 13343 net.cpp:103] Top shape: 1 512 41 41 (860672)
I0907 06:36:36.151201 13343 layer_factory.hpp:78] Creating layer relu4_3
I0907 06:36:36.151213 13343 net.cpp:67] Creating Layer relu4_3
I0907 06:36:36.151219 13343 net.cpp:394] relu4_3 <- conv4_3
I0907 06:36:36.151228 13343 net.cpp:345] relu4_3 -> conv4_3 (in-place)
I0907 06:36:36.151237 13343 net.cpp:96] Setting up relu4_3
I0907 06:36:36.151242 13343 net.cpp:103] Top shape: 1 512 41 41 (860672)
I0907 06:36:36.151247 13343 layer_factory.hpp:78] Creating layer pool4
I0907 06:36:36.151254 13343 net.cpp:67] Creating Layer pool4
I0907 06:36:36.151259 13343 net.cpp:394] pool4 <- conv4_3
I0907 06:36:36.151268 13343 net.cpp:356] pool4 -> pool4
I0907 06:36:36.151280 13343 net.cpp:96] Setting up pool4
I0907 06:36:36.151289 13343 net.cpp:103] Top shape: 1 512 41 41 (860672)
I0907 06:36:36.151294 13343 layer_factory.hpp:78] Creating layer conv5_1
I0907 06:36:36.151304 13343 net.cpp:67] Creating Layer conv5_1
I0907 06:36:36.151309 13343 net.cpp:394] conv5_1 <- pool4
I0907 06:36:36.151316 13343 net.cpp:356] conv5_1 -> conv5_1
I0907 06:36:36.151325 13343 net.cpp:96] Setting up conv5_1
I0907 06:36:36.153661 13343 net.cpp:103] Top shape: 1 512 41 41 (860672)
I0907 06:36:36.153690 13343 layer_factory.hpp:78] Creating layer relu5_1
I0907 06:36:36.153702 13343 net.cpp:67] Creating Layer relu5_1
I0907 06:36:36.153708 13343 net.cpp:394] relu5_1 <- conv5_1
I0907 06:36:36.153717 13343 net.cpp:345] relu5_1 -> conv5_1 (in-place)
I0907 06:36:36.153724 13343 net.cpp:96] Setting up relu5_1
I0907 06:36:36.153728 13343 net.cpp:103] Top shape: 1 512 41 41 (860672)
I0907 06:36:36.153733 13343 layer_factory.hpp:78] Creating layer conv5_2
I0907 06:36:36.153740 13343 net.cpp:67] Creating Layer conv5_2
I0907 06:36:36.153744 13343 net.cpp:394] conv5_2 <- conv5_1
I0907 06:36:36.153750 13343 net.cpp:356] conv5_2 -> conv5_2
I0907 06:36:36.153758 13343 net.cpp:96] Setting up conv5_2
I0907 06:36:36.155483 13343 net.cpp:103] Top shape: 1 512 41 41 (860672)
I0907 06:36:36.155505 13343 layer_factory.hpp:78] Creating layer relu5_2
I0907 06:36:36.155517 13343 net.cpp:67] Creating Layer relu5_2
I0907 06:36:36.155521 13343 net.cpp:394] relu5_2 <- conv5_2
I0907 06:36:36.155535 13343 net.cpp:345] relu5_2 -> conv5_2 (in-place)
I0907 06:36:36.155551 13343 net.cpp:96] Setting up relu5_2
I0907 06:36:36.155555 13343 net.cpp:103] Top shape: 1 512 41 41 (860672)
I0907 06:36:36.155560 13343 layer_factory.hpp:78] Creating layer conv5_3
I0907 06:36:36.155570 13343 net.cpp:67] Creating Layer conv5_3
I0907 06:36:36.155573 13343 net.cpp:394] conv5_3 <- conv5_2
I0907 06:36:36.155580 13343 net.cpp:356] conv5_3 -> conv5_3
I0907 06:36:36.155586 13343 net.cpp:96] Setting up conv5_3
I0907 06:36:36.157584 13343 net.cpp:103] Top shape: 1 512 41 41 (860672)
I0907 06:36:36.157613 13343 layer_factory.hpp:78] Creating layer relu5_3
I0907 06:36:36.157622 13343 net.cpp:67] Creating Layer relu5_3
I0907 06:36:36.157629 13343 net.cpp:394] relu5_3 <- conv5_3
I0907 06:36:36.157635 13343 net.cpp:345] relu5_3 -> conv5_3 (in-place)
I0907 06:36:36.157642 13343 net.cpp:96] Setting up relu5_3
I0907 06:36:36.157647 13343 net.cpp:103] Top shape: 1 512 41 41 (860672)
I0907 06:36:36.157676 13343 layer_factory.hpp:78] Creating layer pool5
I0907 06:36:36.157683 13343 net.cpp:67] Creating Layer pool5
I0907 06:36:36.157687 13343 net.cpp:394] pool5 <- conv5_3
I0907 06:36:36.157694 13343 net.cpp:356] pool5 -> pool5
I0907 06:36:36.157701 13343 net.cpp:96] Setting up pool5
I0907 06:36:36.157706 13343 net.cpp:103] Top shape: 1 512 41 41 (860672)
I0907 06:36:36.157711 13343 layer_factory.hpp:78] Creating layer pool5a
I0907 06:36:36.157727 13343 net.cpp:67] Creating Layer pool5a
I0907 06:36:36.157730 13343 net.cpp:394] pool5a <- pool5
I0907 06:36:36.157737 13343 net.cpp:356] pool5a -> pool5a
I0907 06:36:36.157742 13343 net.cpp:96] Setting up pool5a
I0907 06:36:36.157747 13343 net.cpp:103] Top shape: 1 512 41 41 (860672)
I0907 06:36:36.157752 13343 layer_factory.hpp:78] Creating layer fc6
I0907 06:36:36.157758 13343 net.cpp:67] Creating Layer fc6
I0907 06:36:36.157763 13343 net.cpp:394] fc6 <- pool5a
I0907 06:36:36.157768 13343 net.cpp:356] fc6 -> fc6
I0907 06:36:36.157774 13343 net.cpp:96] Setting up fc6
I0907 06:36:36.161463 13343 net.cpp:103] Top shape: 1 1024 41 41 (1721344)
I0907 06:36:36.161487 13343 layer_factory.hpp:78] Creating layer relu6
I0907 06:36:36.161497 13343 net.cpp:67] Creating Layer relu6
I0907 06:36:36.161502 13343 net.cpp:394] relu6 <- fc6
I0907 06:36:36.161509 13343 net.cpp:345] relu6 -> fc6 (in-place)
I0907 06:36:36.161516 13343 net.cpp:96] Setting up relu6
I0907 06:36:36.161520 13343 net.cpp:103] Top shape: 1 1024 41 41 (1721344)
I0907 06:36:36.161525 13343 layer_factory.hpp:78] Creating layer drop6
I0907 06:36:36.161531 13343 net.cpp:67] Creating Layer drop6
I0907 06:36:36.161535 13343 net.cpp:394] drop6 <- fc6
I0907 06:36:36.161540 13343 net.cpp:345] drop6 -> fc6 (in-place)
I0907 06:36:36.161545 13343 net.cpp:96] Setting up drop6
I0907 06:36:36.161550 13343 net.cpp:103] Top shape: 1 1024 41 41 (1721344)
I0907 06:36:36.161553 13343 layer_factory.hpp:78] Creating layer fc7
I0907 06:36:36.161561 13343 net.cpp:67] Creating Layer fc7
I0907 06:36:36.161563 13343 net.cpp:394] fc7 <- fc6
I0907 06:36:36.161571 13343 net.cpp:356] fc7 -> fc7
I0907 06:36:36.161577 13343 net.cpp:96] Setting up fc7
I0907 06:36:36.162789 13343 net.cpp:103] Top shape: 1 1024 41 41 (1721344)
I0907 06:36:36.162811 13343 layer_factory.hpp:78] Creating layer relu7
I0907 06:36:36.162820 13343 net.cpp:67] Creating Layer relu7
I0907 06:36:36.162824 13343 net.cpp:394] relu7 <- fc7
I0907 06:36:36.162832 13343 net.cpp:345] relu7 -> fc7 (in-place)
I0907 06:36:36.162839 13343 net.cpp:96] Setting up relu7
I0907 06:36:36.162843 13343 net.cpp:103] Top shape: 1 1024 41 41 (1721344)
I0907 06:36:36.162847 13343 layer_factory.hpp:78] Creating layer drop7
I0907 06:36:36.162853 13343 net.cpp:67] Creating Layer drop7
I0907 06:36:36.162856 13343 net.cpp:394] drop7 <- fc7
I0907 06:36:36.162863 13343 net.cpp:345] drop7 -> fc7 (in-place)
I0907 06:36:36.162868 13343 net.cpp:96] Setting up drop7
I0907 06:36:36.162871 13343 net.cpp:103] Top shape: 1 1024 41 41 (1721344)
I0907 06:36:36.162875 13343 layer_factory.hpp:78] Creating layer fc8_food17
I0907 06:36:36.162883 13343 net.cpp:67] Creating Layer fc8_food17
I0907 06:36:36.162886 13343 net.cpp:394] fc8_food17 <- fc7
I0907 06:36:36.162892 13343 net.cpp:356] fc8_food17 -> fc8_food17
I0907 06:36:36.162899 13343 net.cpp:96] Setting up fc8_food17
I0907 06:36:36.163230 13343 net.cpp:103] Top shape: 1 18 41 41 (30258)
I0907 06:36:36.163239 13343 layer_factory.hpp:78] Creating layer fc8_food17_fc8_food17_0_split
I0907 06:36:36.163246 13343 net.cpp:67] Creating Layer fc8_food17_fc8_food17_0_split
I0907 06:36:36.163250 13343 net.cpp:394] fc8_food17_fc8_food17_0_split <- fc8_food17
I0907 06:36:36.163257 13343 net.cpp:356] fc8_food17_fc8_food17_0_split -> fc8_food17_fc8_food17_0_split_0
I0907 06:36:36.163266 13343 net.cpp:356] fc8_food17_fc8_food17_0_split -> fc8_food17_fc8_food17_0_split_1
I0907 06:36:36.163274 13343 net.cpp:96] Setting up fc8_food17_fc8_food17_0_split
I0907 06:36:36.163278 13343 net.cpp:103] Top shape: 1 18 41 41 (30258)
I0907 06:36:36.163282 13343 net.cpp:103] Top shape: 1 18 41 41 (30258)
I0907 06:36:36.163305 13343 layer_factory.hpp:78] Creating layer label_shrink
I0907 06:36:36.163316 13343 net.cpp:67] Creating Layer label_shrink
I0907 06:36:36.163321 13343 net.cpp:394] label_shrink <- label
I0907 06:36:36.163326 13343 net.cpp:356] label_shrink -> label_shrink
I0907 06:36:36.163333 13343 net.cpp:96] Setting up label_shrink
I0907 06:36:36.163338 13343 net.cpp:103] Top shape: 1 1 41 41 (1681)
I0907 06:36:36.163342 13343 layer_factory.hpp:78] Creating layer label_shrink_label_shrink_0_split
I0907 06:36:36.163348 13343 net.cpp:67] Creating Layer label_shrink_label_shrink_0_split
I0907 06:36:36.163352 13343 net.cpp:394] label_shrink_label_shrink_0_split <- label_shrink
I0907 06:36:36.163358 13343 net.cpp:356] label_shrink_label_shrink_0_split -> label_shrink_label_shrink_0_split_0
I0907 06:36:36.163365 13343 net.cpp:356] label_shrink_label_shrink_0_split -> label_shrink_label_shrink_0_split_1
I0907 06:36:36.163377 13343 net.cpp:96] Setting up label_shrink_label_shrink_0_split
I0907 06:36:36.163381 13343 net.cpp:103] Top shape: 1 1 41 41 (1681)
I0907 06:36:36.163386 13343 net.cpp:103] Top shape: 1 1 41 41 (1681)
I0907 06:36:36.163391 13343 layer_factory.hpp:78] Creating layer loss
I0907 06:36:36.163403 13343 net.cpp:67] Creating Layer loss
I0907 06:36:36.163406 13343 net.cpp:394] loss <- fc8_food17_fc8_food17_0_split_0
I0907 06:36:36.163413 13343 net.cpp:394] loss <- label_shrink_label_shrink_0_split_0
I0907 06:36:36.163420 13343 net.cpp:356] loss -> (automatic)
I0907 06:36:36.163426 13343 net.cpp:96] Setting up loss
I0907 06:36:36.163434 13343 softmax_loss_layer.cpp:40] Weight_Loss file is not provided. Assign all one to it.
I0907 06:36:36.163439 13343 net.cpp:103] Top shape: 1 1 1 1 (1)
I0907 06:36:36.163444 13343 net.cpp:109]     with loss weight 1
I0907 06:36:36.163461 13343 layer_factory.hpp:78] Creating layer accuracy
I0907 06:36:36.163470 13343 net.cpp:67] Creating Layer accuracy
I0907 06:36:36.163475 13343 net.cpp:394] accuracy <- fc8_food17_fc8_food17_0_split_1
I0907 06:36:36.163480 13343 net.cpp:394] accuracy <- label_shrink_label_shrink_0_split_1
I0907 06:36:36.163486 13343 net.cpp:356] accuracy -> accuracy
I0907 06:36:36.163492 13343 net.cpp:96] Setting up accuracy
I0907 06:36:36.163502 13343 net.cpp:103] Top shape: 1 1 1 3 (3)
I0907 06:36:36.163506 13343 net.cpp:172] accuracy does not need backward computation.
I0907 06:36:36.163511 13343 net.cpp:170] loss needs backward computation.
I0907 06:36:36.163516 13343 net.cpp:172] label_shrink_label_shrink_0_split does not need backward computation.
I0907 06:36:36.163520 13343 net.cpp:172] label_shrink does not need backward computation.
I0907 06:36:36.163525 13343 net.cpp:170] fc8_food17_fc8_food17_0_split needs backward computation.
…
