…
I0907 20:22:38.495829  6884 solver.cpp:58] Creating training net from train_net file: food17/config/food17/train_train.prototxt
I0907 20:22:38.496240  6884 net.cpp:39] Initializing net from parameters: 
name: "food17"
layers {
  top: "data"
  top: "label"
  name: "data"
  type: IMAGE_SEG_DATA
  image_data_param {
    source: "food17/list/train.txt"
    batch_size: 1
    shuffle: true
    root_folder: "/home/khanhngan/tuan.khai/DeepLab-Context/food_data"
    label_type: PIXEL
  }
  include {
    phase: TRAIN
  }
  transform_param {
    mirror: true
    crop_size: 321
    mean_value: 104.008
    mean_value: 116.669
    mean_value: 122.675
  }
}
layers {
  bottom: "data"
  top: "conv1_1"
  name: "conv1_1"
  type: CONVOLUTION
  blobs_lr: 1
  blobs_lr: 2
  weight_decay: 1
  weight_decay: 0
  convolution_param {
    num_output: 64
    pad: 1
    kernel_size: 3
  }
}
layers {
  bottom: "conv1_1"
  top: "conv1_1"
  name: "relu1_1"
  type: RELU
}
layers {
  bottom: "conv1_1"
  top: "conv1_2"
  name: "conv1_2"
  type: CONVOLUTION
  blobs_lr: 1
  blobs_lr: 2
  weight_decay: 1
  weight_decay: 0
  convolution_param {
    num_output: 64
    pad: 1
    kernel_size: 3
  }
}
layers {
  bottom: "conv1_2"
  top: "conv1_2"
  name: "relu1_2"
  type: RELU
}
layers {
  bottom: "conv1_2"
  top: "pool1"
  name: "pool1"
  type: POOLING
  pooling_param {
    pool: MAX
    kernel_size: 3
    stride: 2
    pad: 1
  }
}
layers {
  bottom: "pool1"
  top: "conv2_1"
  name: "conv2_1"
  type: CONVOLUTION
  blobs_lr: 1
  blobs_lr: 2
  weight_decay: 1
  weight_decay: 0
  convolution_param {
    num_output: 128
    pad: 1
    kernel_size: 3
  }
}
layers {
  bottom: "conv2_1"
  top: "conv2_1"
  name: "relu2_1"
  type: RELU
}
layers {
  bottom: "conv2_1"
  top: "conv2_2"
  name: "conv2_2"
  type: CONVOLUTION
  blobs_lr: 1
  blobs_lr: 2
  weight_decay: 1
  weight_decay: 0
  convolution_param {
    num_output: 128
    pad: 1
    kernel_size: 3
  }
}
layers {
  bottom: "conv2_2"
  top: "conv2_2"
  name: "relu2_2"
  type: RELU
}
layers {
  bottom: "conv2_2"
  top: "pool2"
  name: "pool2"
  type: POOLING
  pooling_param {
    pool: MAX
    kernel_size: 3
    stride: 2
    pad: 1
  }
}
layers {
  bottom: "pool2"
  top: "conv3_1"
  name: "conv3_1"
  type: CONVOLUTION
  blobs_lr: 1
  blobs_lr: 2
  weight_decay: 1
  weight_decay: 0
  convolution_param {
    num_output: 256
    pad: 1
    kernel_size: 3
  }
}
layers {
  bottom: "conv3_1"
  top: "conv3_1"
  name: "relu3_1"
  type: RELU
}
layers {
  bottom: "conv3_1"
  top: "conv3_2"
  name: "conv3_2"
  type: CONVOLUTION
  blobs_lr: 1
  blobs_lr: 2
  weight_decay: 1
  weight_decay: 0
  convolution_param {
    num_output: 256
    pad: 1
    kernel_size: 3
  }
}
layers {
  bottom: "conv3_2"
  top: "conv3_2"
  name: "relu3_2"
  type: RELU
}
layers {
  bottom: "conv3_2"
  top: "conv3_3"
  name: "conv3_3"
  type: CONVOLUTION
  blobs_lr: 1
  blobs_lr: 2
  weight_decay: 1
  weight_decay: 0
  convolution_param {
    num_output: 256
    pad: 1
    kernel_size: 3
  }
}
layers {
  bottom: "conv3_3"
  top: "conv3_3"
  name: "relu3_3"
  type: RELU
}
layers {
  bottom: "conv3_3"
  top: "pool3"
  name: "pool3"
  type: POOLING
  pooling_param {
    pool: MAX
    kernel_size: 3
    stride: 2
    pad: 1
  }
}
layers {
  bottom: "pool3"
  top: "conv4_1"
  name: "conv4_1"
  type: CONVOLUTION
  blobs_lr: 1
  blobs_lr: 2
  weight_decay: 1
  weight_decay: 0
  convolution_param {
    num_output: 512
    pad: 1
    kernel_size: 3
  }
}
layers {
  bottom: "conv4_1"
  top: "conv4_1"
  name: "relu4_1"
  type: RELU
}
layers {
  bottom: "conv4_1"
  top: "conv4_2"
  name: "conv4_2"
  type: CONVOLUTION
  blobs_lr: 1
  blobs_lr: 2
  weight_decay: 1
  weight_decay: 0
  convolution_param {
    num_output: 512
    pad: 1
    kernel_size: 3
  }
}
layers {
  bottom: "conv4_2"
  top: "conv4_2"
  name: "relu4_2"
  type: RELU
}
layers {
  bottom: "conv4_2"
  top: "conv4_3"
  name: "conv4_3"
  type: CONVOLUTION
  blobs_lr: 1
  blobs_lr: 2
  weight_decay: 1
  weight_decay: 0
  convolution_param {
    num_output: 512
    pad: 1
    kernel_size: 3
  }
}
layers {
  bottom: "conv4_3"
  top: "conv4_3"
  name: "relu4_3"
  type: RELU
}
layers {
  bottom: "conv4_3"
  top: "pool4"
  name: "pool4"
  type: POOLING
  pooling_param {
    pool: MAX
    kernel_size: 3
    stride: 1
    pad: 1
  }
}
layers {
  bottom: "pool4"
  top: "conv5_1"
  name: "conv5_1"
  type: CONVOLUTION
  blobs_lr: 1
  blobs_lr: 2
  weight_decay: 1
  weight_decay: 0
  convolution_param {
    num_output: 512
    pad: 2
    kernel_size: 3
    hole: 2
  }
}
layers {
  bottom: "conv5_1"
  top: "conv5_1"
  name: "relu5_1"
  type: RELU
}
layers {
  bottom: "conv5_1"
  top: "conv5_2"
  name: "conv5_2"
  type: CONVOLUTION
  blobs_lr: 1
  blobs_lr: 2
  weight_decay: 1
  weight_decay: 0
  convolution_param {
    num_output: 512
    pad: 2
    kernel_size: 3
    hole: 2
  }
}
layers {
  bottom: "conv5_2"
  top: "conv5_2"
  name: "relu5_2"
  type: RELU
}
layers {
  bottom: "conv5_2"
  top: "conv5_3"
  name: "conv5_3"
  type: CONVOLUTION
  blobs_lr: 1
  blobs_lr: 2
  weight_decay: 1
  weight_decay: 0
  convolution_param {
    num_output: 512
    pad: 2
    kernel_size: 3
    hole: 2
  }
}
layers {
  bottom: "conv5_3"
  top: "conv5_3"
  name: "relu5_3"
  type: RELU
}
layers {
  bottom: "conv5_3"
  top: "pool5"
  name: "pool5"
  type: POOLING
  pooling_param {
    pool: MAX
    kernel_size: 3
    stride: 1
    pad: 1
  }
}
layers {
  bottom: "pool5"
  top: "pool5a"
  name: "pool5a"
  type: POOLING
  pooling_param {
    pool: AVE
    kernel_size: 3
    stride: 1
    pad: 1
  }
}
layers {
  bottom: "pool5a"
  top: "fc6"
  name: "fc6"
  type: CONVOLUTION
  blobs_lr: 1
  blobs_lr: 2
  weight_decay: 1
  weight_decay: 0
  convolution_param {
    num_output: 1024
    pad: 12
    kernel_size: 3
    hole: 12
  }
}
layers {
  bottom: "fc6"
  top: "fc6"
  name: "relu6"
  type: RELU
}
layers {
  bottom: "fc6"
  top: "fc6"
  name: "drop6"
  type: DROPOUT
  dropout_param {
    dropout_ratio: 0.5
  }
}
layers {
  bottom: "fc6"
  top: "fc7"
  name: "fc7"
  type: CONVOLUTION
  blobs_lr: 1
  blobs_lr: 2
  weight_decay: 1
  weight_decay: 0
  convolution_param {
    num_output: 1024
    kernel_size: 1
  }
}
layers {
  bottom: "fc7"
  top: "fc7"
  name: "relu7"
  type: RELU
}
layers {
  bottom: "fc7"
  top: "fc7"
  name: "drop7"
  type: DROPOUT
  dropout_param {
    dropout_ratio: 0.5
  }
}
layers {
  bottom: "fc7"
  top: "fc8_food17"
  name: "fc8_food17"
  type: CONVOLUTION
  blobs_lr: 10
  blobs_lr: 20
  weight_decay: 1
  weight_decay: 0
  convolution_param {
    num_output: 18
    kernel_size: 1
    weight_filler {
      type: "gaussian"
      std: 0.01
    }
    bias_filler {
      type: "constant"
      value: 0
    }
  }
}
layers {
  bottom: "label"
  top: "label_shrink"
  name: "label_shrink"
  type: INTERP
  interp_param {
    shrink_factor: 8
    pad_beg: 0
    pad_end: 0
  }
}
layers {
  bottom: "fc8_food17"
  bottom: "label_shrink"
  name: "loss"
  type: SOFTMAX_LOSS
  include {
    phase: TRAIN
  }
  softmaxloss_param {
    ignore_label: 255
  }
}
layers {
  bottom: "fc8_food17"
  bottom: "label_shrink"
  top: "accuracy"
  name: "accuracy"
  type: SEG_ACCURACY
  seg_accuracy_param {
    ignore_label: 255
  }
}
state {
  phase: TRAIN
}
I0907 20:22:38.496485  6884 layer_factory.hpp:78] Creating layer data
I0907 20:22:38.496505  6884 net.cpp:67] Creating Layer data
I0907 20:22:38.496511  6884 net.cpp:356] data -> data
I0907 20:22:38.496526  6884 net.cpp:356] data -> label
I0907 20:22:38.496536  6884 net.cpp:356] data -> (automatic)
I0907 20:22:38.496542  6884 net.cpp:96] Setting up data
I0907 20:22:38.496548  6884 image_seg_data_layer.cpp:45] Opening file food17/list/train.txt
I0907 20:22:38.499620  6884 image_seg_data_layer.cpp:62] Shuffling data
I0907 20:22:38.500116  6884 image_seg_data_layer.cpp:67] A total of 2594 images.
I0907 20:22:38.501489  6884 image_seg_data_layer.cpp:113] output data size: 1,3,321,321
I0907 20:22:38.501498  6884 image_seg_data_layer.cpp:117] output label size: 1,1,321,321
I0907 20:22:38.501503  6884 image_seg_data_layer.cpp:121] output data_dim size: 1,1,1,2
I0907 20:22:38.501647  6884 net.cpp:103] Top shape: 1 3 321 321 (309123)
I0907 20:22:38.501655  6884 net.cpp:103] Top shape: 1 1 321 321 (103041)
I0907 20:22:38.501660  6884 net.cpp:103] Top shape: 1 1 1 2 (2)
I0907 20:22:38.501696  6884 layer_factory.hpp:78] Creating layer conv1_1
I0907 20:22:38.501713  6884 net.cpp:67] Creating Layer conv1_1
I0907 20:22:38.501718  6884 net.cpp:394] conv1_1 <- data
I0907 20:22:38.501731  6884 net.cpp:356] conv1_1 -> conv1_1
I0907 20:22:38.501741  6884 net.cpp:96] Setting up conv1_1
I0907 20:22:38.501878  6884 net.cpp:103] Top shape: 1 64 321 321 (6594624)
I0907 20:22:38.501889  6884 layer_factory.hpp:78] Creating layer relu1_1
I0907 20:22:38.501895  6884 net.cpp:67] Creating Layer relu1_1
I0907 20:22:38.501899  6884 net.cpp:394] relu1_1 <- conv1_1
I0907 20:22:38.501904  6884 net.cpp:345] relu1_1 -> conv1_1 (in-place)
I0907 20:22:38.501909  6884 net.cpp:96] Setting up relu1_1
I0907 20:22:38.501914  6884 net.cpp:103] Top shape: 1 64 321 321 (6594624)
I0907 20:22:38.501917  6884 layer_factory.hpp:78] Creating layer conv1_2
I0907 20:22:38.501921  6884 net.cpp:67] Creating Layer conv1_2
I0907 20:22:38.501924  6884 net.cpp:394] conv1_2 <- conv1_1
I0907 20:22:38.501929  6884 net.cpp:356] conv1_2 -> conv1_2
I0907 20:22:38.501935  6884 net.cpp:96] Setting up conv1_2
I0907 20:22:38.502173  6884 net.cpp:103] Top shape: 1 64 321 321 (6594624)
I0907 20:22:38.502182  6884 layer_factory.hpp:78] Creating layer relu1_2
I0907 20:22:38.502187  6884 net.cpp:67] Creating Layer relu1_2
I0907 20:22:38.502190  6884 net.cpp:394] relu1_2 <- conv1_2
I0907 20:22:38.502193  6884 net.cpp:345] relu1_2 -> conv1_2 (in-place)
I0907 20:22:38.502198  6884 net.cpp:96] Setting up relu1_2
I0907 20:22:38.502200  6884 net.cpp:103] Top shape: 1 64 321 321 (6594624)
I0907 20:22:38.502204  6884 layer_factory.hpp:78] Creating layer pool1
I0907 20:22:38.502208  6884 net.cpp:67] Creating Layer pool1
I0907 20:22:38.502212  6884 net.cpp:394] pool1 <- conv1_2
I0907 20:22:38.502214  6884 net.cpp:356] pool1 -> pool1
I0907 20:22:38.502219  6884 net.cpp:96] Setting up pool1
I0907 20:22:38.502229  6884 net.cpp:103] Top shape: 1 64 161 161 (1658944)
I0907 20:22:38.502233  6884 layer_factory.hpp:78] Creating layer conv2_1
I0907 20:22:38.502238  6884 net.cpp:67] Creating Layer conv2_1
I0907 20:22:38.502243  6884 net.cpp:394] conv2_1 <- pool1
I0907 20:22:38.502250  6884 net.cpp:356] conv2_1 -> conv2_1
I0907 20:22:38.502256  6884 net.cpp:96] Setting up conv2_1
I0907 20:22:38.502408  6884 net.cpp:103] Top shape: 1 128 161 161 (3317888)
I0907 20:22:38.502418  6884 layer_factory.hpp:78] Creating layer relu2_1
I0907 20:22:38.502424  6884 net.cpp:67] Creating Layer relu2_1
I0907 20:22:38.502429  6884 net.cpp:394] relu2_1 <- conv2_1
I0907 20:22:38.502434  6884 net.cpp:345] relu2_1 -> conv2_1 (in-place)
I0907 20:22:38.502441  6884 net.cpp:96] Setting up relu2_1
I0907 20:22:38.502445  6884 net.cpp:103] Top shape: 1 128 161 161 (3317888)
I0907 20:22:38.502449  6884 layer_factory.hpp:78] Creating layer conv2_2
I0907 20:22:38.502456  6884 net.cpp:67] Creating Layer conv2_2
I0907 20:22:38.502461  6884 net.cpp:394] conv2_2 <- conv2_1
I0907 20:22:38.502467  6884 net.cpp:356] conv2_2 -> conv2_2
I0907 20:22:38.502472  6884 net.cpp:96] Setting up conv2_2
I0907 20:22:38.502735  6884 net.cpp:103] Top shape: 1 128 161 161 (3317888)
I0907 20:22:38.502743  6884 layer_factory.hpp:78] Creating layer relu2_2
I0907 20:22:38.502748  6884 net.cpp:67] Creating Layer relu2_2
I0907 20:22:38.502753  6884 net.cpp:394] relu2_2 <- conv2_2
I0907 20:22:38.502758  6884 net.cpp:345] relu2_2 -> conv2_2 (in-place)
I0907 20:22:38.502763  6884 net.cpp:96] Setting up relu2_2
I0907 20:22:38.502768  6884 net.cpp:103] Top shape: 1 128 161 161 (3317888)
I0907 20:22:38.502774  6884 layer_factory.hpp:78] Creating layer pool2
I0907 20:22:38.502796  6884 net.cpp:67] Creating Layer pool2
I0907 20:22:38.502801  6884 net.cpp:394] pool2 <- conv2_2
I0907 20:22:38.502807  6884 net.cpp:356] pool2 -> pool2
I0907 20:22:38.502815  6884 net.cpp:96] Setting up pool2
I0907 20:22:38.502821  6884 net.cpp:103] Top shape: 1 128 81 81 (839808)
I0907 20:22:38.502825  6884 layer_factory.hpp:78] Creating layer conv3_1
I0907 20:22:38.502831  6884 net.cpp:67] Creating Layer conv3_1
I0907 20:22:38.502835  6884 net.cpp:394] conv3_1 <- pool2
I0907 20:22:38.502840  6884 net.cpp:356] conv3_1 -> conv3_1
I0907 20:22:38.502846  6884 net.cpp:96] Setting up conv3_1
I0907 20:22:38.503233  6884 net.cpp:103] Top shape: 1 256 81 81 (1679616)
I0907 20:22:38.503245  6884 layer_factory.hpp:78] Creating layer relu3_1
I0907 20:22:38.503252  6884 net.cpp:67] Creating Layer relu3_1
I0907 20:22:38.503255  6884 net.cpp:394] relu3_1 <- conv3_1
I0907 20:22:38.503260  6884 net.cpp:345] relu3_1 -> conv3_1 (in-place)
I0907 20:22:38.503265  6884 net.cpp:96] Setting up relu3_1
I0907 20:22:38.503268  6884 net.cpp:103] Top shape: 1 256 81 81 (1679616)
I0907 20:22:38.503271  6884 layer_factory.hpp:78] Creating layer conv3_2
I0907 20:22:38.503275  6884 net.cpp:67] Creating Layer conv3_2
I0907 20:22:38.503278  6884 net.cpp:394] conv3_2 <- conv3_1
I0907 20:22:38.503283  6884 net.cpp:356] conv3_2 -> conv3_2
I0907 20:22:38.503289  6884 net.cpp:96] Setting up conv3_2
I0907 20:22:38.504132  6884 net.cpp:103] Top shape: 1 256 81 81 (1679616)
I0907 20:22:38.504149  6884 layer_factory.hpp:78] Creating layer relu3_2
I0907 20:22:38.504158  6884 net.cpp:67] Creating Layer relu3_2
I0907 20:22:38.504161  6884 net.cpp:394] relu3_2 <- conv3_2
I0907 20:22:38.504168  6884 net.cpp:345] relu3_2 -> conv3_2 (in-place)
I0907 20:22:38.504174  6884 net.cpp:96] Setting up relu3_2
I0907 20:22:38.504179  6884 net.cpp:103] Top shape: 1 256 81 81 (1679616)
I0907 20:22:38.504182  6884 layer_factory.hpp:78] Creating layer conv3_3
I0907 20:22:38.504189  6884 net.cpp:67] Creating Layer conv3_3
I0907 20:22:38.504194  6884 net.cpp:394] conv3_3 <- conv3_2
I0907 20:22:38.504199  6884 net.cpp:356] conv3_3 -> conv3_3
I0907 20:22:38.504206  6884 net.cpp:96] Setting up conv3_3
I0907 20:22:38.504626  6884 net.cpp:103] Top shape: 1 256 81 81 (1679616)
I0907 20:22:38.504642  6884 layer_factory.hpp:78] Creating layer relu3_3
I0907 20:22:38.504652  6884 net.cpp:67] Creating Layer relu3_3
I0907 20:22:38.504657  6884 net.cpp:394] relu3_3 <- conv3_3
I0907 20:22:38.504663  6884 net.cpp:345] relu3_3 -> conv3_3 (in-place)
I0907 20:22:38.504670  6884 net.cpp:96] Setting up relu3_3
I0907 20:22:38.504674  6884 net.cpp:103] Top shape: 1 256 81 81 (1679616)
I0907 20:22:38.504679  6884 layer_factory.hpp:78] Creating layer pool3
I0907 20:22:38.504685  6884 net.cpp:67] Creating Layer pool3
I0907 20:22:38.504688  6884 net.cpp:394] pool3 <- conv3_3
I0907 20:22:38.504695  6884 net.cpp:356] pool3 -> pool3
I0907 20:22:38.504701  6884 net.cpp:96] Setting up pool3
I0907 20:22:38.504707  6884 net.cpp:103] Top shape: 1 256 41 41 (430336)
I0907 20:22:38.504711  6884 layer_factory.hpp:78] Creating layer conv4_1
I0907 20:22:38.504717  6884 net.cpp:67] Creating Layer conv4_1
I0907 20:22:38.504721  6884 net.cpp:394] conv4_1 <- pool3
I0907 20:22:38.504729  6884 net.cpp:356] conv4_1 -> conv4_1
I0907 20:22:38.504736  6884 net.cpp:96] Setting up conv4_1
I0907 20:22:38.505918  6884 net.cpp:103] Top shape: 1 512 41 41 (860672)
I0907 20:22:38.505937  6884 layer_factory.hpp:78] Creating layer relu4_1
I0907 20:22:38.505946  6884 net.cpp:67] Creating Layer relu4_1
I0907 20:22:38.505951  6884 net.cpp:394] relu4_1 <- conv4_1
I0907 20:22:38.505959  6884 net.cpp:345] relu4_1 -> conv4_1 (in-place)
I0907 20:22:38.505965  6884 net.cpp:96] Setting up relu4_1
I0907 20:22:38.505969  6884 net.cpp:103] Top shape: 1 512 41 41 (860672)
I0907 20:22:38.505973  6884 layer_factory.hpp:78] Creating layer conv4_2
I0907 20:22:38.505980  6884 net.cpp:67] Creating Layer conv4_2
I0907 20:22:38.505983  6884 net.cpp:394] conv4_2 <- conv4_1
I0907 20:22:38.505990  6884 net.cpp:356] conv4_2 -> conv4_2
I0907 20:22:38.506012  6884 net.cpp:96] Setting up conv4_2
I0907 20:22:38.507696  6884 net.cpp:103] Top shape: 1 512 41 41 (860672)
I0907 20:22:38.507741  6884 layer_factory.hpp:78] Creating layer relu4_2
I0907 20:22:38.507750  6884 net.cpp:67] Creating Layer relu4_2
I0907 20:22:38.507755  6884 net.cpp:394] relu4_2 <- conv4_2
I0907 20:22:38.507761  6884 net.cpp:345] relu4_2 -> conv4_2 (in-place)
I0907 20:22:38.507768  6884 net.cpp:96] Setting up relu4_2
I0907 20:22:38.507772  6884 net.cpp:103] Top shape: 1 512 41 41 (860672)
I0907 20:22:38.507776  6884 layer_factory.hpp:78] Creating layer conv4_3
I0907 20:22:38.507782  6884 net.cpp:67] Creating Layer conv4_3
I0907 20:22:38.507786  6884 net.cpp:394] conv4_3 <- conv4_2
I0907 20:22:38.507793  6884 net.cpp:356] conv4_3 -> conv4_3
I0907 20:22:38.507800  6884 net.cpp:96] Setting up conv4_3
I0907 20:22:38.509601  6884 net.cpp:103] Top shape: 1 512 41 41 (860672)
I0907 20:22:38.509626  6884 layer_factory.hpp:78] Creating layer relu4_3
I0907 20:22:38.509636  6884 net.cpp:67] Creating Layer relu4_3
I0907 20:22:38.509641  6884 net.cpp:394] relu4_3 <- conv4_3
I0907 20:22:38.509649  6884 net.cpp:345] relu4_3 -> conv4_3 (in-place)
I0907 20:22:38.509657  6884 net.cpp:96] Setting up relu4_3
I0907 20:22:38.509661  6884 net.cpp:103] Top shape: 1 512 41 41 (860672)
I0907 20:22:38.509666  6884 layer_factory.hpp:78] Creating layer pool4
I0907 20:22:38.509673  6884 net.cpp:67] Creating Layer pool4
I0907 20:22:38.509677  6884 net.cpp:394] pool4 <- conv4_3
I0907 20:22:38.509685  6884 net.cpp:356] pool4 -> pool4
I0907 20:22:38.509692  6884 net.cpp:96] Setting up pool4
I0907 20:22:38.509699  6884 net.cpp:103] Top shape: 1 512 41 41 (860672)
I0907 20:22:38.509702  6884 layer_factory.hpp:78] Creating layer conv5_1
I0907 20:22:38.509709  6884 net.cpp:67] Creating Layer conv5_1
I0907 20:22:38.509713  6884 net.cpp:394] conv5_1 <- pool4
I0907 20:22:38.509721  6884 net.cpp:356] conv5_1 -> conv5_1
I0907 20:22:38.509727  6884 net.cpp:96] Setting up conv5_1
I0907 20:22:38.511863  6884 net.cpp:103] Top shape: 1 512 41 41 (860672)
I0907 20:22:38.511889  6884 layer_factory.hpp:78] Creating layer relu5_1
I0907 20:22:38.511899  6884 net.cpp:67] Creating Layer relu5_1
I0907 20:22:38.511904  6884 net.cpp:394] relu5_1 <- conv5_1
I0907 20:22:38.511910  6884 net.cpp:345] relu5_1 -> conv5_1 (in-place)
I0907 20:22:38.511919  6884 net.cpp:96] Setting up relu5_1
I0907 20:22:38.511924  6884 net.cpp:103] Top shape: 1 512 41 41 (860672)
I0907 20:22:38.511929  6884 layer_factory.hpp:78] Creating layer conv5_2
I0907 20:22:38.511935  6884 net.cpp:67] Creating Layer conv5_2
I0907 20:22:38.511940  6884 net.cpp:394] conv5_2 <- conv5_1
I0907 20:22:38.511948  6884 net.cpp:356] conv5_2 -> conv5_2
I0907 20:22:38.511956  6884 net.cpp:96] Setting up conv5_2
I0907 20:22:38.513587  6884 net.cpp:103] Top shape: 1 512 41 41 (860672)
I0907 20:22:38.513608  6884 layer_factory.hpp:78] Creating layer relu5_2
I0907 20:22:38.513615  6884 net.cpp:67] Creating Layer relu5_2
I0907 20:22:38.513618  6884 net.cpp:394] relu5_2 <- conv5_2
I0907 20:22:38.513623  6884 net.cpp:345] relu5_2 -> conv5_2 (in-place)
I0907 20:22:38.513628  6884 net.cpp:96] Setting up relu5_2
I0907 20:22:38.513631  6884 net.cpp:103] Top shape: 1 512 41 41 (860672)
I0907 20:22:38.513633  6884 layer_factory.hpp:78] Creating layer conv5_3
I0907 20:22:38.513638  6884 net.cpp:67] Creating Layer conv5_3
I0907 20:22:38.513640  6884 net.cpp:394] conv5_3 <- conv5_2
I0907 20:22:38.513645  6884 net.cpp:356] conv5_3 -> conv5_3
I0907 20:22:38.513653  6884 net.cpp:96] Setting up conv5_3
I0907 20:22:38.515539  6884 net.cpp:103] Top shape: 1 512 41 41 (860672)
I0907 20:22:38.515564  6884 layer_factory.hpp:78] Creating layer relu5_3
I0907 20:22:38.515576  6884 net.cpp:67] Creating Layer relu5_3
I0907 20:22:38.515581  6884 net.cpp:394] relu5_3 <- conv5_3
I0907 20:22:38.515588  6884 net.cpp:345] relu5_3 -> conv5_3 (in-place)
I0907 20:22:38.515595  6884 net.cpp:96] Setting up relu5_3
I0907 20:22:38.515600  6884 net.cpp:103] Top shape: 1 512 41 41 (860672)
I0907 20:22:38.515630  6884 layer_factory.hpp:78] Creating layer pool5
I0907 20:22:38.515636  6884 net.cpp:67] Creating Layer pool5
I0907 20:22:38.515640  6884 net.cpp:394] pool5 <- conv5_3
I0907 20:22:38.515645  6884 net.cpp:356] pool5 -> pool5
I0907 20:22:38.515650  6884 net.cpp:96] Setting up pool5
I0907 20:22:38.515655  6884 net.cpp:103] Top shape: 1 512 41 41 (860672)
I0907 20:22:38.515658  6884 layer_factory.hpp:78] Creating layer pool5a
I0907 20:22:38.515666  6884 net.cpp:67] Creating Layer pool5a
I0907 20:22:38.515668  6884 net.cpp:394] pool5a <- pool5
I0907 20:22:38.515672  6884 net.cpp:356] pool5a -> pool5a
I0907 20:22:38.515677  6884 net.cpp:96] Setting up pool5a
I0907 20:22:38.515681  6884 net.cpp:103] Top shape: 1 512 41 41 (860672)
I0907 20:22:38.515686  6884 layer_factory.hpp:78] Creating layer fc6
I0907 20:22:38.515693  6884 net.cpp:67] Creating Layer fc6
I0907 20:22:38.515697  6884 net.cpp:394] fc6 <- pool5a
I0907 20:22:38.515704  6884 net.cpp:356] fc6 -> fc6
I0907 20:22:38.515710  6884 net.cpp:96] Setting up fc6
I0907 20:22:38.518869  6884 net.cpp:103] Top shape: 1 1024 41 41 (1721344)
I0907 20:22:38.518899  6884 layer_factory.hpp:78] Creating layer relu6
I0907 20:22:38.518909  6884 net.cpp:67] Creating Layer relu6
I0907 20:22:38.518915  6884 net.cpp:394] relu6 <- fc6
I0907 20:22:38.518923  6884 net.cpp:345] relu6 -> fc6 (in-place)
I0907 20:22:38.518932  6884 net.cpp:96] Setting up relu6
I0907 20:22:38.518936  6884 net.cpp:103] Top shape: 1 1024 41 41 (1721344)
I0907 20:22:38.518941  6884 layer_factory.hpp:78] Creating layer drop6
I0907 20:22:38.518947  6884 net.cpp:67] Creating Layer drop6
I0907 20:22:38.518954  6884 net.cpp:394] drop6 <- fc6
I0907 20:22:38.518960  6884 net.cpp:345] drop6 -> fc6 (in-place)
I0907 20:22:38.518966  6884 net.cpp:96] Setting up drop6
I0907 20:22:38.518971  6884 net.cpp:103] Top shape: 1 1024 41 41 (1721344)
I0907 20:22:38.518977  6884 layer_factory.hpp:78] Creating layer fc7
I0907 20:22:38.518985  6884 net.cpp:67] Creating Layer fc7
I0907 20:22:38.518990  6884 net.cpp:394] fc7 <- fc6
I0907 20:22:38.518998  6884 net.cpp:356] fc7 -> fc7
I0907 20:22:38.519006  6884 net.cpp:96] Setting up fc7
I0907 20:22:38.519932  6884 net.cpp:103] Top shape: 1 1024 41 41 (1721344)
I0907 20:22:38.519950  6884 layer_factory.hpp:78] Creating layer relu7
I0907 20:22:38.519958  6884 net.cpp:67] Creating Layer relu7
I0907 20:22:38.519960  6884 net.cpp:394] relu7 <- fc7
I0907 20:22:38.519968  6884 net.cpp:345] relu7 -> fc7 (in-place)
I0907 20:22:38.519973  6884 net.cpp:96] Setting up relu7
I0907 20:22:38.519976  6884 net.cpp:103] Top shape: 1 1024 41 41 (1721344)
I0907 20:22:38.519979  6884 layer_factory.hpp:78] Creating layer drop7
I0907 20:22:38.519984  6884 net.cpp:67] Creating Layer drop7
I0907 20:22:38.519987  6884 net.cpp:394] drop7 <- fc7
I0907 20:22:38.519992  6884 net.cpp:345] drop7 -> fc7 (in-place)
I0907 20:22:38.519997  6884 net.cpp:96] Setting up drop7
I0907 20:22:38.520001  6884 net.cpp:103] Top shape: 1 1024 41 41 (1721344)
I0907 20:22:38.520004  6884 layer_factory.hpp:78] Creating layer fc8_food17
I0907 20:22:38.520010  6884 net.cpp:67] Creating Layer fc8_food17
I0907 20:22:38.520014  6884 net.cpp:394] fc8_food17 <- fc7
I0907 20:22:38.520018  6884 net.cpp:356] fc8_food17 -> fc8_food17
I0907 20:22:38.520025  6884 net.cpp:96] Setting up fc8_food17
I0907 20:22:38.520334  6884 net.cpp:103] Top shape: 1 18 41 41 (30258)
I0907 20:22:38.520340  6884 layer_factory.hpp:78] Creating layer fc8_food17_fc8_food17_0_split
I0907 20:22:38.520345  6884 net.cpp:67] Creating Layer fc8_food17_fc8_food17_0_split
I0907 20:22:38.520349  6884 net.cpp:394] fc8_food17_fc8_food17_0_split <- fc8_food17
I0907 20:22:38.520354  6884 net.cpp:356] fc8_food17_fc8_food17_0_split -> fc8_food17_fc8_food17_0_split_0
I0907 20:22:38.520360  6884 net.cpp:356] fc8_food17_fc8_food17_0_split -> fc8_food17_fc8_food17_0_split_1
I0907 20:22:38.520366  6884 net.cpp:96] Setting up fc8_food17_fc8_food17_0_split
I0907 20:22:38.520370  6884 net.cpp:103] Top shape: 1 18 41 41 (30258)
I0907 20:22:38.520373  6884 net.cpp:103] Top shape: 1 18 41 41 (30258)
I0907 20:22:38.520393  6884 layer_factory.hpp:78] Creating layer label_shrink
I0907 20:22:38.520403  6884 net.cpp:67] Creating Layer label_shrink
I0907 20:22:38.520406  6884 net.cpp:394] label_shrink <- label
I0907 20:22:38.520411  6884 net.cpp:356] label_shrink -> label_shrink
I0907 20:22:38.520417  6884 net.cpp:96] Setting up label_shrink
I0907 20:22:38.520421  6884 net.cpp:103] Top shape: 1 1 41 41 (1681)
I0907 20:22:38.520424  6884 layer_factory.hpp:78] Creating layer label_shrink_label_shrink_0_split
I0907 20:22:38.520429  6884 net.cpp:67] Creating Layer label_shrink_label_shrink_0_split
I0907 20:22:38.520432  6884 net.cpp:394] label_shrink_label_shrink_0_split <- label_shrink
I0907 20:22:38.520437  6884 net.cpp:356] label_shrink_label_shrink_0_split -> label_shrink_label_shrink_0_split_0
I0907 20:22:38.520443  6884 net.cpp:356] label_shrink_label_shrink_0_split -> label_shrink_label_shrink_0_split_1
I0907 20:22:38.520448  6884 net.cpp:96] Setting up label_shrink_label_shrink_0_split
I0907 20:22:38.520452  6884 net.cpp:103] Top shape: 1 1 41 41 (1681)
I0907 20:22:38.520455  6884 net.cpp:103] Top shape: 1 1 41 41 (1681)
I0907 20:22:38.520458  6884 layer_factory.hpp:78] Creating layer loss
I0907 20:22:38.520470  6884 net.cpp:67] Creating Layer loss
I0907 20:22:38.520474  6884 net.cpp:394] loss <- fc8_food17_fc8_food17_0_split_0
I0907 20:22:38.520479  6884 net.cpp:394] loss <- label_shrink_label_shrink_0_split_0
I0907 20:22:38.520493  6884 net.cpp:356] loss -> (automatic)
I0907 20:22:38.520499  6884 net.cpp:96] Setting up loss
I0907 20:22:38.520504  6884 softmax_loss_layer.cpp:40] Weight_Loss file is not provided. Assign all one to it.
I0907 20:22:38.520510  6884 net.cpp:103] Top shape: 1 1 1 1 (1)
I0907 20:22:38.520514  6884 net.cpp:109]     with loss weight 1
I0907 20:22:38.520534  6884 layer_factory.hpp:78] Creating layer accuracy
I0907 20:22:38.520539  6884 net.cpp:67] Creating Layer accuracy
I0907 20:22:38.520543  6884 net.cpp:394] accuracy <- fc8_food17_fc8_food17_0_split_1
I0907 20:22:38.520547  6884 net.cpp:394] accuracy <- label_shrink_label_shrink_0_split_1
I0907 20:22:38.520551  6884 net.cpp:356] accuracy -> accuracy
I0907 20:22:38.520557  6884 net.cpp:96] Setting up accuracy
I0907 20:22:38.520565  6884 net.cpp:103] Top shape: 1 1 1 3 (3)
I0907 20:22:38.520568  6884 net.cpp:172] accuracy does not need backward computation.
I0907 20:22:38.520571  6884 net.cpp:170] loss needs backward computation.
I0907 20:22:38.520575  6884 net.cpp:172] label_shrink_label_shrink_0_split does not need backward computation.
I0907 20:22:38.520578  6884 net.cpp:172] label_shrink does not need backward computation.
I0907 20:22:38.520581  6884 net.cpp:170] fc8_food17_fc8_food17_0_split needs backward computation.
…
