…
I0907 05:52:14.555760  3342 solver.cpp:58] Creating training net from train_net file: food17/config/food17/train_train.prototxt
I0907 05:52:14.558013  3342 net.cpp:39] Initializing net from parameters: 
name: "food17"
layers {
  top: "data"
  top: "label"
  name: "data"
  type: IMAGE_SEG_DATA
  image_data_param {
    source: "food17/list/train.txt"
    batch_size: 1
    shuffle: true
    root_folder: "/home/khanhngan/tuan.khai/DeepLab-Context/food_data"
    label_type: PIXEL
  }
  include {
    phase: TRAIN
  }
  transform_param {
    mirror: true
    crop_size: 321
    mean_value: 104.008
    mean_value: 116.669
    mean_value: 122.675
  }
}
layers {
  bottom: "data"
  top: "conv1_1"
  name: "conv1_1"
  type: CONVOLUTION
  blobs_lr: 1
  blobs_lr: 2
  weight_decay: 1
  weight_decay: 0
  convolution_param {
    num_output: 64
    pad: 1
    kernel_size: 3
  }
}
layers {
  bottom: "conv1_1"
  top: "conv1_1"
  name: "relu1_1"
  type: RELU
}
layers {
  bottom: "conv1_1"
  top: "conv1_2"
  name: "conv1_2"
  type: CONVOLUTION
  blobs_lr: 1
  blobs_lr: 2
  weight_decay: 1
  weight_decay: 0
  convolution_param {
    num_output: 64
    pad: 1
    kernel_size: 3
  }
}
layers {
  bottom: "conv1_2"
  top: "conv1_2"
  name: "relu1_2"
  type: RELU
}
layers {
  bottom: "conv1_2"
  top: "pool1"
  name: "pool1"
  type: POOLING
  pooling_param {
    pool: MAX
    kernel_size: 3
    stride: 2
    pad: 1
  }
}
layers {
  bottom: "pool1"
  top: "conv2_1"
  name: "conv2_1"
  type: CONVOLUTION
  blobs_lr: 1
  blobs_lr: 2
  weight_decay: 1
  weight_decay: 0
  convolution_param {
    num_output: 128
    pad: 1
    kernel_size: 3
  }
}
layers {
  bottom: "conv2_1"
  top: "conv2_1"
  name: "relu2_1"
  type: RELU
}
layers {
  bottom: "conv2_1"
  top: "conv2_2"
  name: "conv2_2"
  type: CONVOLUTION
  blobs_lr: 1
  blobs_lr: 2
  weight_decay: 1
  weight_decay: 0
  convolution_param {
    num_output: 128
    pad: 1
    kernel_size: 3
  }
}
layers {
  bottom: "conv2_2"
  top: "conv2_2"
  name: "relu2_2"
  type: RELU
}
layers {
  bottom: "conv2_2"
  top: "pool2"
  name: "pool2"
  type: POOLING
  pooling_param {
    pool: MAX
    kernel_size: 3
    stride: 2
    pad: 1
  }
}
layers {
  bottom: "pool2"
  top: "conv3_1"
  name: "conv3_1"
  type: CONVOLUTION
  blobs_lr: 1
  blobs_lr: 2
  weight_decay: 1
  weight_decay: 0
  convolution_param {
    num_output: 256
    pad: 1
    kernel_size: 3
  }
}
layers {
  bottom: "conv3_1"
  top: "conv3_1"
  name: "relu3_1"
  type: RELU
}
layers {
  bottom: "conv3_1"
  top: "conv3_2"
  name: "conv3_2"
  type: CONVOLUTION
  blobs_lr: 1
  blobs_lr: 2
  weight_decay: 1
  weight_decay: 0
  convolution_param {
    num_output: 256
    pad: 1
    kernel_size: 3
  }
}
layers {
  bottom: "conv3_2"
  top: "conv3_2"
  name: "relu3_2"
  type: RELU
}
layers {
  bottom: "conv3_2"
  top: "conv3_3"
  name: "conv3_3"
  type: CONVOLUTION
  blobs_lr: 1
  blobs_lr: 2
  weight_decay: 1
  weight_decay: 0
  convolution_param {
    num_output: 256
    pad: 1
    kernel_size: 3
  }
}
layers {
  bottom: "conv3_3"
  top: "conv3_3"
  name: "relu3_3"
  type: RELU
}
layers {
  bottom: "conv3_3"
  top: "pool3"
  name: "pool3"
  type: POOLING
  pooling_param {
    pool: MAX
    kernel_size: 3
    stride: 2
    pad: 1
  }
}
layers {
  bottom: "pool3"
  top: "conv4_1"
  name: "conv4_1"
  type: CONVOLUTION
  blobs_lr: 1
  blobs_lr: 2
  weight_decay: 1
  weight_decay: 0
  convolution_param {
    num_output: 512
    pad: 1
    kernel_size: 3
  }
}
layers {
  bottom: "conv4_1"
  top: "conv4_1"
  name: "relu4_1"
  type: RELU
}
layers {
  bottom: "conv4_1"
  top: "conv4_2"
  name: "conv4_2"
  type: CONVOLUTION
  blobs_lr: 1
  blobs_lr: 2
  weight_decay: 1
  weight_decay: 0
  convolution_param {
    num_output: 512
    pad: 1
    kernel_size: 3
  }
}
layers {
  bottom: "conv4_2"
  top: "conv4_2"
  name: "relu4_2"
  type: RELU
}
layers {
  bottom: "conv4_2"
  top: "conv4_3"
  name: "conv4_3"
  type: CONVOLUTION
  blobs_lr: 1
  blobs_lr: 2
  weight_decay: 1
  weight_decay: 0
  convolution_param {
    num_output: 512
    pad: 1
    kernel_size: 3
  }
}
layers {
  bottom: "conv4_3"
  top: "conv4_3"
  name: "relu4_3"
  type: RELU
}
layers {
  bottom: "conv4_3"
  top: "pool4"
  name: "pool4"
  type: POOLING
  pooling_param {
    pool: MAX
    kernel_size: 3
    stride: 1
    pad: 1
  }
}
layers {
  bottom: "pool4"
  top: "conv5_1"
  name: "conv5_1"
  type: CONVOLUTION
  blobs_lr: 1
  blobs_lr: 2
  weight_decay: 1
  weight_decay: 0
  convolution_param {
    num_output: 512
    pad: 2
    kernel_size: 3
    hole: 2
  }
}
layers {
  bottom: "conv5_1"
  top: "conv5_1"
  name: "relu5_1"
  type: RELU
}
layers {
  bottom: "conv5_1"
  top: "conv5_2"
  name: "conv5_2"
  type: CONVOLUTION
  blobs_lr: 1
  blobs_lr: 2
  weight_decay: 1
  weight_decay: 0
  convolution_param {
    num_output: 512
    pad: 2
    kernel_size: 3
    hole: 2
  }
}
layers {
  bottom: "conv5_2"
  top: "conv5_2"
  name: "relu5_2"
  type: RELU
}
layers {
  bottom: "conv5_2"
  top: "conv5_3"
  name: "conv5_3"
  type: CONVOLUTION
  blobs_lr: 1
  blobs_lr: 2
  weight_decay: 1
  weight_decay: 0
  convolution_param {
    num_output: 512
    pad: 2
    kernel_size: 3
    hole: 2
  }
}
layers {
  bottom: "conv5_3"
  top: "conv5_3"
  name: "relu5_3"
  type: RELU
}
layers {
  bottom: "conv5_3"
  top: "pool5"
  name: "pool5"
  type: POOLING
  pooling_param {
    pool: MAX
    kernel_size: 3
    stride: 1
    pad: 1
  }
}
layers {
  bottom: "pool5"
  top: "pool5a"
  name: "pool5a"
  type: POOLING
  pooling_param {
    pool: AVE
    kernel_size: 3
    stride: 1
    pad: 1
  }
}
layers {
  bottom: "pool5a"
  top: "fc6"
  name: "fc6"
  type: CONVOLUTION
  blobs_lr: 1
  blobs_lr: 2
  weight_decay: 1
  weight_decay: 0
  convolution_param {
    num_output: 1024
    pad: 12
    kernel_size: 3
    hole: 12
  }
}
layers {
  bottom: "fc6"
  top: "fc6"
  name: "relu6"
  type: RELU
}
layers {
  bottom: "fc6"
  top: "fc6"
  name: "drop6"
  type: DROPOUT
  dropout_param {
    dropout_ratio: 0.5
  }
}
layers {
  bottom: "fc6"
  top: "fc7"
  name: "fc7"
  type: CONVOLUTION
  blobs_lr: 1
  blobs_lr: 2
  weight_decay: 1
  weight_decay: 0
  convolution_param {
    num_output: 1024
    kernel_size: 1
  }
}
layers {
  bottom: "fc7"
  top: "fc7"
  name: "relu7"
  type: RELU
}
layers {
  bottom: "fc7"
  top: "fc7"
  name: "drop7"
  type: DROPOUT
  dropout_param {
    dropout_ratio: 0.5
  }
}
layers {
  bottom: "fc7"
  top: "fc8_food17"
  name: "fc8_food17"
  type: CONVOLUTION
  blobs_lr: 10
  blobs_lr: 20
  weight_decay: 1
  weight_decay: 0
  convolution_param {
    num_output: 18
    kernel_size: 1
    weight_filler {
      type: "gaussian"
      std: 0.01
    }
    bias_filler {
      type: "constant"
      value: 0
    }
  }
}
layers {
  bottom: "label"
  top: "label_shrink"
  name: "label_shrink"
  type: INTERP
  interp_param {
    shrink_factor: 8
    pad_beg: 0
    pad_end: 0
  }
}
layers {
  bottom: "fc8_food17"
  bottom: "label_shrink"
  name: "loss"
  type: SOFTMAX_LOSS
  include {
    phase: TRAIN
  }
  softmaxloss_param {
    ignore_label: 255
  }
}
layers {
  bottom: "fc8_food17"
  bottom: "label_shrink"
  top: "accuracy"
  name: "accuracy"
  type: SEG_ACCURACY
  seg_accuracy_param {
    ignore_label: 255
  }
}
state {
  phase: TRAIN
}
I0907 05:52:14.569582  3342 layer_factory.hpp:78] Creating layer data
I0907 05:52:14.578630  3342 net.cpp:67] Creating Layer data
I0907 05:52:14.578725  3342 net.cpp:356] data -> data
I0907 05:52:14.578805  3342 net.cpp:356] data -> label
I0907 05:52:14.578864  3342 net.cpp:356] data -> (automatic)
I0907 05:52:14.578898  3342 net.cpp:96] Setting up data
I0907 05:52:14.578943  3342 image_seg_data_layer.cpp:45] Opening file food17/list/train.txt
I0907 05:52:14.607563  3342 image_seg_data_layer.cpp:62] Shuffling data
I0907 05:52:14.609144  3342 image_seg_data_layer.cpp:67] A total of 2595 images.
I0907 05:52:14.619313  3342 image_seg_data_layer.cpp:113] output data size: 1,3,321,321
I0907 05:52:14.619360  3342 image_seg_data_layer.cpp:117] output label size: 1,1,321,321
I0907 05:52:14.619375  3342 image_seg_data_layer.cpp:121] output data_dim size: 1,1,1,2
I0907 05:52:14.619812  3342 net.cpp:103] Top shape: 1 3 321 321 (309123)
I0907 05:52:14.619920  3342 net.cpp:103] Top shape: 1 1 321 321 (103041)
I0907 05:52:14.619932  3342 net.cpp:103] Top shape: 1 1 1 2 (2)
I0907 05:52:14.619941  3342 layer_factory.hpp:78] Creating layer conv1_1
I0907 05:52:14.619962  3342 net.cpp:67] Creating Layer conv1_1
I0907 05:52:14.619971  3342 net.cpp:394] conv1_1 <- data
I0907 05:52:14.619997  3342 net.cpp:356] conv1_1 -> conv1_1
I0907 05:52:14.620023  3342 net.cpp:96] Setting up conv1_1
I0907 05:52:14.620730  3342 net.cpp:103] Top shape: 1 64 321 321 (6594624)
I0907 05:52:14.620765  3342 layer_factory.hpp:78] Creating layer relu1_1
I0907 05:52:14.620776  3342 net.cpp:67] Creating Layer relu1_1
I0907 05:52:14.620782  3342 net.cpp:394] relu1_1 <- conv1_1
I0907 05:52:14.620790  3342 net.cpp:345] relu1_1 -> conv1_1 (in-place)
I0907 05:52:14.620800  3342 net.cpp:96] Setting up relu1_1
I0907 05:52:14.621280  3342 net.cpp:103] Top shape: 1 64 321 321 (6594624)
I0907 05:52:14.621300  3342 layer_factory.hpp:78] Creating layer conv1_2
I0907 05:52:14.621310  3342 net.cpp:67] Creating Layer conv1_2
I0907 05:52:14.621315  3342 net.cpp:394] conv1_2 <- conv1_1
I0907 05:52:14.621323  3342 net.cpp:356] conv1_2 -> conv1_2
I0907 05:52:14.621335  3342 net.cpp:96] Setting up conv1_2
I0907 05:52:14.621608  3342 net.cpp:103] Top shape: 1 64 321 321 (6594624)
I0907 05:52:14.621628  3342 layer_factory.hpp:78] Creating layer relu1_2
I0907 05:52:14.621642  3342 net.cpp:67] Creating Layer relu1_2
I0907 05:52:14.621651  3342 net.cpp:394] relu1_2 <- conv1_2
I0907 05:52:14.621664  3342 net.cpp:345] relu1_2 -> conv1_2 (in-place)
I0907 05:52:14.621676  3342 net.cpp:96] Setting up relu1_2
I0907 05:52:14.621686  3342 net.cpp:103] Top shape: 1 64 321 321 (6594624)
I0907 05:52:14.621693  3342 layer_factory.hpp:78] Creating layer pool1
I0907 05:52:14.621703  3342 net.cpp:67] Creating Layer pool1
I0907 05:52:14.621711  3342 net.cpp:394] pool1 <- conv1_2
I0907 05:52:14.621719  3342 net.cpp:356] pool1 -> pool1
I0907 05:52:14.621729  3342 net.cpp:96] Setting up pool1
I0907 05:52:14.622115  3342 net.cpp:103] Top shape: 1 64 161 161 (1658944)
I0907 05:52:14.622140  3342 layer_factory.hpp:78] Creating layer conv2_1
I0907 05:52:14.622151  3342 net.cpp:67] Creating Layer conv2_1
I0907 05:52:14.622158  3342 net.cpp:394] conv2_1 <- pool1
I0907 05:52:14.622165  3342 net.cpp:356] conv2_1 -> conv2_1
I0907 05:52:14.622174  3342 net.cpp:96] Setting up conv2_1
I0907 05:52:14.622445  3342 net.cpp:103] Top shape: 1 128 161 161 (3317888)
I0907 05:52:14.622473  3342 layer_factory.hpp:78] Creating layer relu2_1
I0907 05:52:14.622486  3342 net.cpp:67] Creating Layer relu2_1
I0907 05:52:14.622494  3342 net.cpp:394] relu2_1 <- conv2_1
I0907 05:52:14.622508  3342 net.cpp:345] relu2_1 -> conv2_1 (in-place)
I0907 05:52:14.622522  3342 net.cpp:96] Setting up relu2_1
I0907 05:52:14.622529  3342 net.cpp:103] Top shape: 1 128 161 161 (3317888)
I0907 05:52:14.622535  3342 layer_factory.hpp:78] Creating layer conv2_2
I0907 05:52:14.622545  3342 net.cpp:67] Creating Layer conv2_2
I0907 05:52:14.622552  3342 net.cpp:394] conv2_2 <- conv2_1
I0907 05:52:14.622565  3342 net.cpp:356] conv2_2 -> conv2_2
I0907 05:52:14.622577  3342 net.cpp:96] Setting up conv2_2
I0907 05:52:14.622937  3342 net.cpp:103] Top shape: 1 128 161 161 (3317888)
I0907 05:52:14.622951  3342 layer_factory.hpp:78] Creating layer relu2_2
I0907 05:52:14.622956  3342 net.cpp:67] Creating Layer relu2_2
I0907 05:52:14.622962  3342 net.cpp:394] relu2_2 <- conv2_2
I0907 05:52:14.622969  3342 net.cpp:345] relu2_2 -> conv2_2 (in-place)
I0907 05:52:14.622977  3342 net.cpp:96] Setting up relu2_2
I0907 05:52:14.622983  3342 net.cpp:103] Top shape: 1 128 161 161 (3317888)
I0907 05:52:14.622987  3342 layer_factory.hpp:78] Creating layer pool2
I0907 05:52:14.623019  3342 net.cpp:67] Creating Layer pool2
I0907 05:52:14.623025  3342 net.cpp:394] pool2 <- conv2_2
I0907 05:52:14.623034  3342 net.cpp:356] pool2 -> pool2
I0907 05:52:14.623044  3342 net.cpp:96] Setting up pool2
I0907 05:52:14.623052  3342 net.cpp:103] Top shape: 1 128 81 81 (839808)
I0907 05:52:14.623059  3342 layer_factory.hpp:78] Creating layer conv3_1
I0907 05:52:14.623066  3342 net.cpp:67] Creating Layer conv3_1
I0907 05:52:14.623072  3342 net.cpp:394] conv3_1 <- pool2
I0907 05:52:14.623085  3342 net.cpp:356] conv3_1 -> conv3_1
I0907 05:52:14.623093  3342 net.cpp:96] Setting up conv3_1
I0907 05:52:14.623693  3342 net.cpp:103] Top shape: 1 256 81 81 (1679616)
I0907 05:52:14.623706  3342 layer_factory.hpp:78] Creating layer relu3_1
I0907 05:52:14.623714  3342 net.cpp:67] Creating Layer relu3_1
I0907 05:52:14.623719  3342 net.cpp:394] relu3_1 <- conv3_1
I0907 05:52:14.623728  3342 net.cpp:345] relu3_1 -> conv3_1 (in-place)
I0907 05:52:14.623734  3342 net.cpp:96] Setting up relu3_1
I0907 05:52:14.623740  3342 net.cpp:103] Top shape: 1 256 81 81 (1679616)
I0907 05:52:14.623745  3342 layer_factory.hpp:78] Creating layer conv3_2
I0907 05:52:14.623752  3342 net.cpp:67] Creating Layer conv3_2
I0907 05:52:14.623759  3342 net.cpp:394] conv3_2 <- conv3_1
I0907 05:52:14.623764  3342 net.cpp:356] conv3_2 -> conv3_2
I0907 05:52:14.623772  3342 net.cpp:96] Setting up conv3_2
I0907 05:52:14.624961  3342 net.cpp:103] Top shape: 1 256 81 81 (1679616)
I0907 05:52:14.624979  3342 layer_factory.hpp:78] Creating layer relu3_2
I0907 05:52:14.624985  3342 net.cpp:67] Creating Layer relu3_2
I0907 05:52:14.624991  3342 net.cpp:394] relu3_2 <- conv3_2
I0907 05:52:14.625000  3342 net.cpp:345] relu3_2 -> conv3_2 (in-place)
I0907 05:52:14.625007  3342 net.cpp:96] Setting up relu3_2
I0907 05:52:14.625013  3342 net.cpp:103] Top shape: 1 256 81 81 (1679616)
I0907 05:52:14.625018  3342 layer_factory.hpp:78] Creating layer conv3_3
I0907 05:52:14.625025  3342 net.cpp:67] Creating Layer conv3_3
I0907 05:52:14.625032  3342 net.cpp:394] conv3_3 <- conv3_2
I0907 05:52:14.625039  3342 net.cpp:356] conv3_3 -> conv3_3
I0907 05:52:14.625047  3342 net.cpp:96] Setting up conv3_3
I0907 05:52:14.626204  3342 net.cpp:103] Top shape: 1 256 81 81 (1679616)
I0907 05:52:14.626216  3342 layer_factory.hpp:78] Creating layer relu3_3
I0907 05:52:14.626226  3342 net.cpp:67] Creating Layer relu3_3
I0907 05:52:14.626232  3342 net.cpp:394] relu3_3 <- conv3_3
I0907 05:52:14.626241  3342 net.cpp:345] relu3_3 -> conv3_3 (in-place)
I0907 05:52:14.626248  3342 net.cpp:96] Setting up relu3_3
I0907 05:52:14.626255  3342 net.cpp:103] Top shape: 1 256 81 81 (1679616)
I0907 05:52:14.626260  3342 layer_factory.hpp:78] Creating layer pool3
I0907 05:52:14.626268  3342 net.cpp:67] Creating Layer pool3
I0907 05:52:14.626273  3342 net.cpp:394] pool3 <- conv3_3
I0907 05:52:14.626281  3342 net.cpp:356] pool3 -> pool3
I0907 05:52:14.626289  3342 net.cpp:96] Setting up pool3
I0907 05:52:14.626296  3342 net.cpp:103] Top shape: 1 256 41 41 (430336)
I0907 05:52:14.626302  3342 layer_factory.hpp:78] Creating layer conv4_1
I0907 05:52:14.626309  3342 net.cpp:67] Creating Layer conv4_1
I0907 05:52:14.626314  3342 net.cpp:394] conv4_1 <- pool3
I0907 05:52:14.626323  3342 net.cpp:356] conv4_1 -> conv4_1
I0907 05:52:14.626332  3342 net.cpp:96] Setting up conv4_1
I0907 05:52:14.627974  3342 net.cpp:103] Top shape: 1 512 41 41 (860672)
I0907 05:52:14.627998  3342 layer_factory.hpp:78] Creating layer relu4_1
I0907 05:52:14.628006  3342 net.cpp:67] Creating Layer relu4_1
I0907 05:52:14.628012  3342 net.cpp:394] relu4_1 <- conv4_1
I0907 05:52:14.628021  3342 net.cpp:345] relu4_1 -> conv4_1 (in-place)
I0907 05:52:14.628027  3342 net.cpp:96] Setting up relu4_1
I0907 05:52:14.628032  3342 net.cpp:103] Top shape: 1 512 41 41 (860672)
I0907 05:52:14.628036  3342 layer_factory.hpp:78] Creating layer conv4_2
I0907 05:52:14.628042  3342 net.cpp:67] Creating Layer conv4_2
I0907 05:52:14.628047  3342 net.cpp:394] conv4_2 <- conv4_1
I0907 05:52:14.628054  3342 net.cpp:356] conv4_2 -> conv4_2
I0907 05:52:14.628082  3342 net.cpp:96] Setting up conv4_2
I0907 05:52:14.630339  3342 net.cpp:103] Top shape: 1 512 41 41 (860672)
I0907 05:52:14.630375  3342 layer_factory.hpp:78] Creating layer relu4_2
I0907 05:52:14.630384  3342 net.cpp:67] Creating Layer relu4_2
I0907 05:52:14.630389  3342 net.cpp:394] relu4_2 <- conv4_2
I0907 05:52:14.630396  3342 net.cpp:345] relu4_2 -> conv4_2 (in-place)
I0907 05:52:14.630404  3342 net.cpp:96] Setting up relu4_2
I0907 05:52:14.630409  3342 net.cpp:103] Top shape: 1 512 41 41 (860672)
I0907 05:52:14.630414  3342 layer_factory.hpp:78] Creating layer conv4_3
I0907 05:52:14.630419  3342 net.cpp:67] Creating Layer conv4_3
I0907 05:52:14.630424  3342 net.cpp:394] conv4_3 <- conv4_2
I0907 05:52:14.630430  3342 net.cpp:356] conv4_3 -> conv4_3
I0907 05:52:14.630436  3342 net.cpp:96] Setting up conv4_3
I0907 05:52:14.632668  3342 net.cpp:103] Top shape: 1 512 41 41 (860672)
I0907 05:52:14.632689  3342 layer_factory.hpp:78] Creating layer relu4_3
I0907 05:52:14.632697  3342 net.cpp:67] Creating Layer relu4_3
I0907 05:52:14.632702  3342 net.cpp:394] relu4_3 <- conv4_3
I0907 05:52:14.632709  3342 net.cpp:345] relu4_3 -> conv4_3 (in-place)
I0907 05:52:14.632715  3342 net.cpp:96] Setting up relu4_3
I0907 05:52:14.632719  3342 net.cpp:103] Top shape: 1 512 41 41 (860672)
I0907 05:52:14.632724  3342 layer_factory.hpp:78] Creating layer pool4
I0907 05:52:14.632730  3342 net.cpp:67] Creating Layer pool4
I0907 05:52:14.632732  3342 net.cpp:394] pool4 <- conv4_3
I0907 05:52:14.632738  3342 net.cpp:356] pool4 -> pool4
I0907 05:52:14.632746  3342 net.cpp:96] Setting up pool4
I0907 05:52:14.632753  3342 net.cpp:103] Top shape: 1 512 41 41 (860672)
I0907 05:52:14.632757  3342 layer_factory.hpp:78] Creating layer conv5_1
I0907 05:52:14.632766  3342 net.cpp:67] Creating Layer conv5_1
I0907 05:52:14.632769  3342 net.cpp:394] conv5_1 <- pool4
I0907 05:52:14.632774  3342 net.cpp:356] conv5_1 -> conv5_1
I0907 05:52:14.632781  3342 net.cpp:96] Setting up conv5_1
I0907 05:52:14.634732  3342 net.cpp:103] Top shape: 1 512 41 41 (860672)
I0907 05:52:14.634754  3342 layer_factory.hpp:78] Creating layer relu5_1
I0907 05:52:14.634764  3342 net.cpp:67] Creating Layer relu5_1
I0907 05:52:14.634768  3342 net.cpp:394] relu5_1 <- conv5_1
I0907 05:52:14.634775  3342 net.cpp:345] relu5_1 -> conv5_1 (in-place)
I0907 05:52:14.634781  3342 net.cpp:96] Setting up relu5_1
I0907 05:52:14.634785  3342 net.cpp:103] Top shape: 1 512 41 41 (860672)
I0907 05:52:14.634789  3342 layer_factory.hpp:78] Creating layer conv5_2
I0907 05:52:14.634794  3342 net.cpp:67] Creating Layer conv5_2
I0907 05:52:14.634799  3342 net.cpp:394] conv5_2 <- conv5_1
I0907 05:52:14.634805  3342 net.cpp:356] conv5_2 -> conv5_2
I0907 05:52:14.634812  3342 net.cpp:96] Setting up conv5_2
I0907 05:52:14.637132  3342 net.cpp:103] Top shape: 1 512 41 41 (860672)
I0907 05:52:14.637156  3342 layer_factory.hpp:78] Creating layer relu5_2
I0907 05:52:14.637164  3342 net.cpp:67] Creating Layer relu5_2
I0907 05:52:14.637168  3342 net.cpp:394] relu5_2 <- conv5_2
I0907 05:52:14.637174  3342 net.cpp:345] relu5_2 -> conv5_2 (in-place)
I0907 05:52:14.637181  3342 net.cpp:96] Setting up relu5_2
I0907 05:52:14.637184  3342 net.cpp:103] Top shape: 1 512 41 41 (860672)
I0907 05:52:14.637187  3342 layer_factory.hpp:78] Creating layer conv5_3
I0907 05:52:14.637192  3342 net.cpp:67] Creating Layer conv5_3
I0907 05:52:14.637195  3342 net.cpp:394] conv5_3 <- conv5_2
I0907 05:52:14.637199  3342 net.cpp:356] conv5_3 -> conv5_3
I0907 05:52:14.637207  3342 net.cpp:96] Setting up conv5_3
I0907 05:52:14.638979  3342 net.cpp:103] Top shape: 1 512 41 41 (860672)
I0907 05:52:14.638999  3342 layer_factory.hpp:78] Creating layer relu5_3
I0907 05:52:14.639008  3342 net.cpp:67] Creating Layer relu5_3
I0907 05:52:14.639011  3342 net.cpp:394] relu5_3 <- conv5_3
I0907 05:52:14.639019  3342 net.cpp:345] relu5_3 -> conv5_3 (in-place)
I0907 05:52:14.639024  3342 net.cpp:96] Setting up relu5_3
I0907 05:52:14.639029  3342 net.cpp:103] Top shape: 1 512 41 41 (860672)
I0907 05:52:14.639051  3342 layer_factory.hpp:78] Creating layer pool5
I0907 05:52:14.639056  3342 net.cpp:67] Creating Layer pool5
I0907 05:52:14.639060  3342 net.cpp:394] pool5 <- conv5_3
I0907 05:52:14.639065  3342 net.cpp:356] pool5 -> pool5
I0907 05:52:14.639070  3342 net.cpp:96] Setting up pool5
I0907 05:52:14.639075  3342 net.cpp:103] Top shape: 1 512 41 41 (860672)
I0907 05:52:14.639080  3342 layer_factory.hpp:78] Creating layer pool5a
I0907 05:52:14.639096  3342 net.cpp:67] Creating Layer pool5a
I0907 05:52:14.639101  3342 net.cpp:394] pool5a <- pool5
I0907 05:52:14.639104  3342 net.cpp:356] pool5a -> pool5a
I0907 05:52:14.639109  3342 net.cpp:96] Setting up pool5a
I0907 05:52:14.639112  3342 net.cpp:103] Top shape: 1 512 41 41 (860672)
I0907 05:52:14.639116  3342 layer_factory.hpp:78] Creating layer fc6
I0907 05:52:14.639122  3342 net.cpp:67] Creating Layer fc6
I0907 05:52:14.639125  3342 net.cpp:394] fc6 <- pool5a
I0907 05:52:14.639129  3342 net.cpp:356] fc6 -> fc6
I0907 05:52:14.639134  3342 net.cpp:96] Setting up fc6
I0907 05:52:14.642781  3342 net.cpp:103] Top shape: 1 1024 41 41 (1721344)
I0907 05:52:14.642804  3342 layer_factory.hpp:78] Creating layer relu6
I0907 05:52:14.642817  3342 net.cpp:67] Creating Layer relu6
I0907 05:52:14.642820  3342 net.cpp:394] relu6 <- fc6
I0907 05:52:14.642828  3342 net.cpp:345] relu6 -> fc6 (in-place)
I0907 05:52:14.642835  3342 net.cpp:96] Setting up relu6
I0907 05:52:14.642839  3342 net.cpp:103] Top shape: 1 1024 41 41 (1721344)
I0907 05:52:14.642843  3342 layer_factory.hpp:78] Creating layer drop6
I0907 05:52:14.642848  3342 net.cpp:67] Creating Layer drop6
I0907 05:52:14.642849  3342 net.cpp:394] drop6 <- fc6
I0907 05:52:14.642853  3342 net.cpp:345] drop6 -> fc6 (in-place)
I0907 05:52:14.642856  3342 net.cpp:96] Setting up drop6
I0907 05:52:14.642859  3342 net.cpp:103] Top shape: 1 1024 41 41 (1721344)
I0907 05:52:14.642863  3342 layer_factory.hpp:78] Creating layer fc7
I0907 05:52:14.642865  3342 net.cpp:67] Creating Layer fc7
I0907 05:52:14.642868  3342 net.cpp:394] fc7 <- fc6
I0907 05:52:14.642871  3342 net.cpp:356] fc7 -> fc7
I0907 05:52:14.642876  3342 net.cpp:96] Setting up fc7
I0907 05:52:14.643849  3342 net.cpp:103] Top shape: 1 1024 41 41 (1721344)
I0907 05:52:14.643872  3342 layer_factory.hpp:78] Creating layer relu7
I0907 05:52:14.643878  3342 net.cpp:67] Creating Layer relu7
I0907 05:52:14.643882  3342 net.cpp:394] relu7 <- fc7
I0907 05:52:14.643888  3342 net.cpp:345] relu7 -> fc7 (in-place)
I0907 05:52:14.643893  3342 net.cpp:96] Setting up relu7
I0907 05:52:14.643898  3342 net.cpp:103] Top shape: 1 1024 41 41 (1721344)
I0907 05:52:14.643901  3342 layer_factory.hpp:78] Creating layer drop7
I0907 05:52:14.643905  3342 net.cpp:67] Creating Layer drop7
I0907 05:52:14.643908  3342 net.cpp:394] drop7 <- fc7
I0907 05:52:14.643911  3342 net.cpp:345] drop7 -> fc7 (in-place)
I0907 05:52:14.643915  3342 net.cpp:96] Setting up drop7
I0907 05:52:14.643918  3342 net.cpp:103] Top shape: 1 1024 41 41 (1721344)
I0907 05:52:14.643920  3342 layer_factory.hpp:78] Creating layer fc8_food17
I0907 05:52:14.643925  3342 net.cpp:67] Creating Layer fc8_food17
I0907 05:52:14.643928  3342 net.cpp:394] fc8_food17 <- fc7
I0907 05:52:14.643934  3342 net.cpp:356] fc8_food17 -> fc8_food17
I0907 05:52:14.643940  3342 net.cpp:96] Setting up fc8_food17
I0907 05:52:14.644256  3342 net.cpp:103] Top shape: 1 18 41 41 (30258)
I0907 05:52:14.644263  3342 layer_factory.hpp:78] Creating layer fc8_food17_fc8_food17_0_split
I0907 05:52:14.644268  3342 net.cpp:67] Creating Layer fc8_food17_fc8_food17_0_split
I0907 05:52:14.644273  3342 net.cpp:394] fc8_food17_fc8_food17_0_split <- fc8_food17
I0907 05:52:14.644286  3342 net.cpp:356] fc8_food17_fc8_food17_0_split -> fc8_food17_fc8_food17_0_split_0
I0907 05:52:14.644309  3342 net.cpp:356] fc8_food17_fc8_food17_0_split -> fc8_food17_fc8_food17_0_split_1
I0907 05:52:14.644317  3342 net.cpp:96] Setting up fc8_food17_fc8_food17_0_split
I0907 05:52:14.644321  3342 net.cpp:103] Top shape: 1 18 41 41 (30258)
I0907 05:52:14.644325  3342 net.cpp:103] Top shape: 1 18 41 41 (30258)
I0907 05:52:14.644345  3342 layer_factory.hpp:78] Creating layer label_shrink
I0907 05:52:14.644379  3342 net.cpp:67] Creating Layer label_shrink
I0907 05:52:14.644383  3342 net.cpp:394] label_shrink <- label
I0907 05:52:14.644389  3342 net.cpp:356] label_shrink -> label_shrink
I0907 05:52:14.644395  3342 net.cpp:96] Setting up label_shrink
I0907 05:52:14.644399  3342 net.cpp:103] Top shape: 1 1 41 41 (1681)
I0907 05:52:14.644402  3342 layer_factory.hpp:78] Creating layer label_shrink_label_shrink_0_split
I0907 05:52:14.644407  3342 net.cpp:67] Creating Layer label_shrink_label_shrink_0_split
I0907 05:52:14.644410  3342 net.cpp:394] label_shrink_label_shrink_0_split <- label_shrink
I0907 05:52:14.644415  3342 net.cpp:356] label_shrink_label_shrink_0_split -> label_shrink_label_shrink_0_split_0
I0907 05:52:14.644421  3342 net.cpp:356] label_shrink_label_shrink_0_split -> label_shrink_label_shrink_0_split_1
I0907 05:52:14.644426  3342 net.cpp:96] Setting up label_shrink_label_shrink_0_split
I0907 05:52:14.644429  3342 net.cpp:103] Top shape: 1 1 41 41 (1681)
I0907 05:52:14.644433  3342 net.cpp:103] Top shape: 1 1 41 41 (1681)
I0907 05:52:14.644435  3342 layer_factory.hpp:78] Creating layer loss
I0907 05:52:14.699615  3342 net.cpp:67] Creating Layer loss
I0907 05:52:14.699693  3342 net.cpp:394] loss <- fc8_food17_fc8_food17_0_split_0
I0907 05:52:14.699743  3342 net.cpp:394] loss <- label_shrink_label_shrink_0_split_0
I0907 05:52:14.699800  3342 net.cpp:356] loss -> (automatic)
I0907 05:52:14.699846  3342 net.cpp:96] Setting up loss
I0907 05:52:14.699885  3342 softmax_loss_layer.cpp:40] Weight_Loss file is not provided. Assign all one to it.
I0907 05:52:14.699926  3342 net.cpp:103] Top shape: 1 1 1 1 (1)
I0907 05:52:14.699957  3342 net.cpp:109]     with loss weight 1
I0907 05:52:14.700062  3342 layer_factory.hpp:78] Creating layer accuracy
I0907 05:52:14.700103  3342 net.cpp:67] Creating Layer accuracy
I0907 05:52:14.700126  3342 net.cpp:394] accuracy <- fc8_food17_fc8_food17_0_split_1
I0907 05:52:14.700155  3342 net.cpp:394] accuracy <- label_shrink_label_shrink_0_split_1
I0907 05:52:14.700196  3342 net.cpp:356] accuracy -> accuracy
I0907 05:52:14.700243  3342 net.cpp:96] Setting up accuracy
I0907 05:52:14.700394  3342 net.cpp:103] Top shape: 1 1 1 3 (3)
I0907 05:52:14.700436  3342 net.cpp:172] accuracy does not need backward computation.
I0907 05:52:14.700459  3342 net.cpp:170] loss needs backward computation.
I0907 05:52:14.700494  3342 net.cpp:172] label_shrink_label_shrink_0_split does not need backward computation.
I0907 05:52:14.700525  3342 net.cpp:172] label_shrink does not need backward computation.
I0907 05:52:14.700557  3342 net.cpp:170] fc8_food17_fc8_food17_0_split needs backward computation.
…
