…
I0908 19:08:12.345396  2608 solver.cpp:58] Creating training net from train_net file: food17/config/food17/train_train.prototxt
I0908 19:08:12.345813  2608 net.cpp:39] Initializing net from parameters: 
name: "food17"
layers {
  top: "data"
  top: "label"
  name: "data"
  type: IMAGE_SEG_DATA
  image_data_param {
    source: "food17/list/train.txt"
    batch_size: 1
    shuffle: true
    root_folder: "/home/khanhngan/tuan.khai/DeepLab-Context/food_data"
    label_type: PIXEL
  }
  include {
    phase: TRAIN
  }
  transform_param {
    mirror: true
    crop_size: 321
    mean_value: 104.008
    mean_value: 116.669
    mean_value: 122.675
  }
}
layers {
  bottom: "data"
  top: "conv1_1"
  name: "conv1_1"
  type: CONVOLUTION
  blobs_lr: 1
  blobs_lr: 2
  weight_decay: 1
  weight_decay: 0
  convolution_param {
    num_output: 64
    pad: 1
    kernel_size: 3
  }
}
layers {
  bottom: "conv1_1"
  top: "conv1_1"
  name: "relu1_1"
  type: RELU
}
layers {
  bottom: "conv1_1"
  top: "conv1_2"
  name: "conv1_2"
  type: CONVOLUTION
  blobs_lr: 1
  blobs_lr: 2
  weight_decay: 1
  weight_decay: 0
  convolution_param {
    num_output: 64
    pad: 1
    kernel_size: 3
  }
}
layers {
  bottom: "conv1_2"
  top: "conv1_2"
  name: "relu1_2"
  type: RELU
}
layers {
  bottom: "conv1_2"
  top: "pool1"
  name: "pool1"
  type: POOLING
  pooling_param {
    pool: MAX
    kernel_size: 3
    stride: 2
    pad: 1
  }
}
layers {
  bottom: "pool1"
  top: "conv2_1"
  name: "conv2_1"
  type: CONVOLUTION
  blobs_lr: 1
  blobs_lr: 2
  weight_decay: 1
  weight_decay: 0
  convolution_param {
    num_output: 128
    pad: 1
    kernel_size: 3
  }
}
layers {
  bottom: "conv2_1"
  top: "conv2_1"
  name: "relu2_1"
  type: RELU
}
layers {
  bottom: "conv2_1"
  top: "conv2_2"
  name: "conv2_2"
  type: CONVOLUTION
  blobs_lr: 1
  blobs_lr: 2
  weight_decay: 1
  weight_decay: 0
  convolution_param {
    num_output: 128
    pad: 1
    kernel_size: 3
  }
}
layers {
  bottom: "conv2_2"
  top: "conv2_2"
  name: "relu2_2"
  type: RELU
}
layers {
  bottom: "conv2_2"
  top: "pool2"
  name: "pool2"
  type: POOLING
  pooling_param {
    pool: MAX
    kernel_size: 3
    stride: 2
    pad: 1
  }
}
layers {
  bottom: "pool2"
  top: "conv3_1"
  name: "conv3_1"
  type: CONVOLUTION
  blobs_lr: 1
  blobs_lr: 2
  weight_decay: 1
  weight_decay: 0
  convolution_param {
    num_output: 256
    pad: 1
    kernel_size: 3
  }
}
layers {
  bottom: "conv3_1"
  top: "conv3_1"
  name: "relu3_1"
  type: RELU
}
layers {
  bottom: "conv3_1"
  top: "conv3_2"
  name: "conv3_2"
  type: CONVOLUTION
  blobs_lr: 1
  blobs_lr: 2
  weight_decay: 1
  weight_decay: 0
  convolution_param {
    num_output: 256
    pad: 1
    kernel_size: 3
  }
}
layers {
  bottom: "conv3_2"
  top: "conv3_2"
  name: "relu3_2"
  type: RELU
}
layers {
  bottom: "conv3_2"
  top: "conv3_3"
  name: "conv3_3"
  type: CONVOLUTION
  blobs_lr: 1
  blobs_lr: 2
  weight_decay: 1
  weight_decay: 0
  convolution_param {
    num_output: 256
    pad: 1
    kernel_size: 3
  }
}
layers {
  bottom: "conv3_3"
  top: "conv3_3"
  name: "relu3_3"
  type: RELU
}
layers {
  bottom: "conv3_3"
  top: "pool3"
  name: "pool3"
  type: POOLING
  pooling_param {
    pool: MAX
    kernel_size: 3
    stride: 2
    pad: 1
  }
}
layers {
  bottom: "pool3"
  top: "conv4_1"
  name: "conv4_1"
  type: CONVOLUTION
  blobs_lr: 1
  blobs_lr: 2
  weight_decay: 1
  weight_decay: 0
  convolution_param {
    num_output: 512
    pad: 1
    kernel_size: 3
  }
}
layers {
  bottom: "conv4_1"
  top: "conv4_1"
  name: "relu4_1"
  type: RELU
}
layers {
  bottom: "conv4_1"
  top: "conv4_2"
  name: "conv4_2"
  type: CONVOLUTION
  blobs_lr: 1
  blobs_lr: 2
  weight_decay: 1
  weight_decay: 0
  convolution_param {
    num_output: 512
    pad: 1
    kernel_size: 3
  }
}
layers {
  bottom: "conv4_2"
  top: "conv4_2"
  name: "relu4_2"
  type: RELU
}
layers {
  bottom: "conv4_2"
  top: "conv4_3"
  name: "conv4_3"
  type: CONVOLUTION
  blobs_lr: 1
  blobs_lr: 2
  weight_decay: 1
  weight_decay: 0
  convolution_param {
    num_output: 512
    pad: 1
    kernel_size: 3
  }
}
layers {
  bottom: "conv4_3"
  top: "conv4_3"
  name: "relu4_3"
  type: RELU
}
layers {
  bottom: "conv4_3"
  top: "pool4"
  name: "pool4"
  type: POOLING
  pooling_param {
    pool: MAX
    kernel_size: 3
    stride: 1
    pad: 1
  }
}
layers {
  bottom: "pool4"
  top: "conv5_1"
  name: "conv5_1"
  type: CONVOLUTION
  blobs_lr: 1
  blobs_lr: 2
  weight_decay: 1
  weight_decay: 0
  convolution_param {
    num_output: 512
    pad: 2
    kernel_size: 3
    hole: 2
  }
}
layers {
  bottom: "conv5_1"
  top: "conv5_1"
  name: "relu5_1"
  type: RELU
}
layers {
  bottom: "conv5_1"
  top: "conv5_2"
  name: "conv5_2"
  type: CONVOLUTION
  blobs_lr: 1
  blobs_lr: 2
  weight_decay: 1
  weight_decay: 0
  convolution_param {
    num_output: 512
    pad: 2
    kernel_size: 3
    hole: 2
  }
}
layers {
  bottom: "conv5_2"
  top: "conv5_2"
  name: "relu5_2"
  type: RELU
}
layers {
  bottom: "conv5_2"
  top: "conv5_3"
  name: "conv5_3"
  type: CONVOLUTION
  blobs_lr: 1
  blobs_lr: 2
  weight_decay: 1
  weight_decay: 0
  convolution_param {
    num_output: 512
    pad: 2
    kernel_size: 3
    hole: 2
  }
}
layers {
  bottom: "conv5_3"
  top: "conv5_3"
  name: "relu5_3"
  type: RELU
}
layers {
  bottom: "conv5_3"
  top: "pool5"
  name: "pool5"
  type: POOLING
  pooling_param {
    pool: MAX
    kernel_size: 3
    stride: 1
    pad: 1
  }
}
layers {
  bottom: "pool5"
  top: "pool5a"
  name: "pool5a"
  type: POOLING
  pooling_param {
    pool: AVE
    kernel_size: 3
    stride: 1
    pad: 1
  }
}
layers {
  bottom: "pool5a"
  top: "fc6"
  name: "fc6"
  type: CONVOLUTION
  blobs_lr: 1
  blobs_lr: 2
  weight_decay: 1
  weight_decay: 0
  convolution_param {
    num_output: 1024
    pad: 12
    kernel_size: 3
    hole: 12
  }
}
layers {
  bottom: "fc6"
  top: "fc6"
  name: "relu6"
  type: RELU
}
layers {
  bottom: "fc6"
  top: "fc6"
  name: "drop6"
  type: DROPOUT
  dropout_param {
    dropout_ratio: 0.5
  }
}
layers {
  bottom: "fc6"
  top: "fc7"
  name: "fc7"
  type: CONVOLUTION
  blobs_lr: 1
  blobs_lr: 2
  weight_decay: 1
  weight_decay: 0
  convolution_param {
    num_output: 1024
    kernel_size: 1
  }
}
layers {
  bottom: "fc7"
  top: "fc7"
  name: "relu7"
  type: RELU
}
layers {
  bottom: "fc7"
  top: "fc7"
  name: "drop7"
  type: DROPOUT
  dropout_param {
    dropout_ratio: 0.5
  }
}
layers {
  bottom: "fc7"
  top: "fc8_food17"
  name: "fc8_food17"
  type: CONVOLUTION
  blobs_lr: 10
  blobs_lr: 20
  weight_decay: 1
  weight_decay: 0
  convolution_param {
    num_output: 18
    kernel_size: 1
    weight_filler {
      type: "gaussian"
      std: 0.01
    }
    bias_filler {
      type: "constant"
      value: 0
    }
  }
}
layers {
  bottom: "label"
  top: "label_shrink"
  name: "label_shrink"
  type: INTERP
  interp_param {
    shrink_factor: 8
    pad_beg: 0
    pad_end: 0
  }
}
layers {
  bottom: "fc8_food17"
  bottom: "label_shrink"
  name: "loss"
  type: SOFTMAX_LOSS
  include {
    phase: TRAIN
  }
  softmaxloss_param {
    ignore_label: 255
  }
}
layers {
  bottom: "fc8_food17"
  bottom: "label_shrink"
  top: "accuracy"
  name: "accuracy"
  type: SEG_ACCURACY
  seg_accuracy_param {
    ignore_label: 255
  }
}
state {
  phase: TRAIN
}
I0908 19:08:12.360246  2608 layer_factory.hpp:78] Creating layer data
I0908 19:08:12.369736  2608 net.cpp:67] Creating Layer data
I0908 19:08:12.369789  2608 net.cpp:356] data -> data
I0908 19:08:12.369926  2608 net.cpp:356] data -> label
I0908 19:08:12.369974  2608 net.cpp:356] data -> (automatic)
I0908 19:08:12.370000  2608 net.cpp:96] Setting up data
I0908 19:08:12.370021  2608 image_seg_data_layer.cpp:45] Opening file food17/list/train.txt
I0908 19:08:12.386165  2608 image_seg_data_layer.cpp:62] Shuffling data
I0908 19:08:12.387488  2608 image_seg_data_layer.cpp:67] A total of 2594 images.
I0908 19:08:12.459733  2608 image_seg_data_layer.cpp:113] output data size: 1,3,321,321
I0908 19:08:12.459817  2608 image_seg_data_layer.cpp:117] output label size: 1,1,321,321
I0908 19:08:12.459890  2608 image_seg_data_layer.cpp:121] output data_dim size: 1,1,1,2
I0908 19:08:12.460739  2608 net.cpp:103] Top shape: 1 3 321 321 (309123)
I0908 19:08:12.460911  2608 net.cpp:103] Top shape: 1 1 321 321 (103041)
I0908 19:08:12.460952  2608 net.cpp:103] Top shape: 1 1 1 2 (2)
I0908 19:08:12.460986  2608 layer_factory.hpp:78] Creating layer conv1_1
I0908 19:08:12.461055  2608 net.cpp:67] Creating Layer conv1_1
I0908 19:08:12.461083  2608 net.cpp:394] conv1_1 <- data
I0908 19:08:12.461151  2608 net.cpp:356] conv1_1 -> conv1_1
I0908 19:08:12.461201  2608 net.cpp:96] Setting up conv1_1
I0908 19:08:12.462921  2608 net.cpp:103] Top shape: 1 64 321 321 (6594624)
I0908 19:08:12.463011  2608 layer_factory.hpp:78] Creating layer relu1_1
I0908 19:08:12.463054  2608 net.cpp:67] Creating Layer relu1_1
I0908 19:08:12.463080  2608 net.cpp:394] relu1_1 <- conv1_1
I0908 19:08:12.463119  2608 net.cpp:345] relu1_1 -> conv1_1 (in-place)
I0908 19:08:12.463158  2608 net.cpp:96] Setting up relu1_1
I0908 19:08:12.463682  2608 net.cpp:103] Top shape: 1 64 321 321 (6594624)
I0908 19:08:12.463722  2608 layer_factory.hpp:78] Creating layer conv1_2
I0908 19:08:12.463765  2608 net.cpp:67] Creating Layer conv1_2
I0908 19:08:12.463790  2608 net.cpp:394] conv1_2 <- conv1_1
I0908 19:08:12.463829  2608 net.cpp:356] conv1_2 -> conv1_2
I0908 19:08:12.463873  2608 net.cpp:96] Setting up conv1_2
I0908 19:08:12.464797  2608 net.cpp:103] Top shape: 1 64 321 321 (6594624)
I0908 19:08:12.464845  2608 layer_factory.hpp:78] Creating layer relu1_2
I0908 19:08:12.464872  2608 net.cpp:67] Creating Layer relu1_2
I0908 19:08:12.464890  2608 net.cpp:394] relu1_2 <- conv1_2
I0908 19:08:12.464921  2608 net.cpp:345] relu1_2 -> conv1_2 (in-place)
I0908 19:08:12.464957  2608 net.cpp:96] Setting up relu1_2
I0908 19:08:12.464982  2608 net.cpp:103] Top shape: 1 64 321 321 (6594624)
I0908 19:08:12.465008  2608 layer_factory.hpp:78] Creating layer pool1
I0908 19:08:12.465044  2608 net.cpp:67] Creating Layer pool1
I0908 19:08:12.465066  2608 net.cpp:394] pool1 <- conv1_2
I0908 19:08:12.465102  2608 net.cpp:356] pool1 -> pool1
I0908 19:08:12.465139  2608 net.cpp:96] Setting up pool1
I0908 19:08:12.465548  2608 net.cpp:103] Top shape: 1 64 161 161 (1658944)
I0908 19:08:12.465587  2608 layer_factory.hpp:78] Creating layer conv2_1
I0908 19:08:12.465613  2608 net.cpp:67] Creating Layer conv2_1
I0908 19:08:12.465631  2608 net.cpp:394] conv2_1 <- pool1
I0908 19:08:12.465656  2608 net.cpp:356] conv2_1 -> conv2_1
I0908 19:08:12.465687  2608 net.cpp:96] Setting up conv2_1
I0908 19:08:12.466475  2608 net.cpp:103] Top shape: 1 128 161 161 (3317888)
I0908 19:08:12.466519  2608 layer_factory.hpp:78] Creating layer relu2_1
I0908 19:08:12.466542  2608 net.cpp:67] Creating Layer relu2_1
I0908 19:08:12.466562  2608 net.cpp:394] relu2_1 <- conv2_1
I0908 19:08:12.466588  2608 net.cpp:345] relu2_1 -> conv2_1 (in-place)
I0908 19:08:12.466615  2608 net.cpp:96] Setting up relu2_1
I0908 19:08:12.466635  2608 net.cpp:103] Top shape: 1 128 161 161 (3317888)
I0908 19:08:12.466655  2608 layer_factory.hpp:78] Creating layer conv2_2
I0908 19:08:12.466686  2608 net.cpp:67] Creating Layer conv2_2
I0908 19:08:12.466706  2608 net.cpp:394] conv2_2 <- conv2_1
I0908 19:08:12.466730  2608 net.cpp:356] conv2_2 -> conv2_2
I0908 19:08:12.466756  2608 net.cpp:96] Setting up conv2_2
I0908 19:08:12.467949  2608 net.cpp:103] Top shape: 1 128 161 161 (3317888)
I0908 19:08:12.467990  2608 layer_factory.hpp:78] Creating layer relu2_2
I0908 19:08:12.468013  2608 net.cpp:67] Creating Layer relu2_2
I0908 19:08:12.468030  2608 net.cpp:394] relu2_2 <- conv2_2
I0908 19:08:12.468056  2608 net.cpp:345] relu2_2 -> conv2_2 (in-place)
I0908 19:08:12.468087  2608 net.cpp:96] Setting up relu2_2
I0908 19:08:12.468111  2608 net.cpp:103] Top shape: 1 128 161 161 (3317888)
I0908 19:08:12.468137  2608 layer_factory.hpp:78] Creating layer pool2
I0908 19:08:12.468233  2608 net.cpp:67] Creating Layer pool2
I0908 19:08:12.468261  2608 net.cpp:394] pool2 <- conv2_2
I0908 19:08:12.468293  2608 net.cpp:356] pool2 -> pool2
I0908 19:08:12.468336  2608 net.cpp:96] Setting up pool2
I0908 19:08:12.468369  2608 net.cpp:103] Top shape: 1 128 81 81 (839808)
I0908 19:08:12.468392  2608 layer_factory.hpp:78] Creating layer conv3_1
I0908 19:08:12.468423  2608 net.cpp:67] Creating Layer conv3_1
I0908 19:08:12.468444  2608 net.cpp:394] conv3_1 <- pool2
I0908 19:08:12.468490  2608 net.cpp:356] conv3_1 -> conv3_1
I0908 19:08:12.468524  2608 net.cpp:96] Setting up conv3_1
I0908 19:08:12.470361  2608 net.cpp:103] Top shape: 1 256 81 81 (1679616)
I0908 19:08:12.470415  2608 layer_factory.hpp:78] Creating layer relu3_1
I0908 19:08:12.470445  2608 net.cpp:67] Creating Layer relu3_1
I0908 19:08:12.470468  2608 net.cpp:394] relu3_1 <- conv3_1
I0908 19:08:12.470497  2608 net.cpp:345] relu3_1 -> conv3_1 (in-place)
I0908 19:08:12.470527  2608 net.cpp:96] Setting up relu3_1
I0908 19:08:12.470546  2608 net.cpp:103] Top shape: 1 256 81 81 (1679616)
I0908 19:08:12.470569  2608 layer_factory.hpp:78] Creating layer conv3_2
I0908 19:08:12.470598  2608 net.cpp:67] Creating Layer conv3_2
I0908 19:08:12.470618  2608 net.cpp:394] conv3_2 <- conv3_1
I0908 19:08:12.470649  2608 net.cpp:356] conv3_2 -> conv3_2
I0908 19:08:12.470679  2608 net.cpp:96] Setting up conv3_2
I0908 19:08:12.475101  2608 net.cpp:103] Top shape: 1 256 81 81 (1679616)
I0908 19:08:12.475211  2608 layer_factory.hpp:78] Creating layer relu3_2
I0908 19:08:12.475261  2608 net.cpp:67] Creating Layer relu3_2
I0908 19:08:12.475296  2608 net.cpp:394] relu3_2 <- conv3_2
I0908 19:08:12.475349  2608 net.cpp:345] relu3_2 -> conv3_2 (in-place)
I0908 19:08:12.475400  2608 net.cpp:96] Setting up relu3_2
I0908 19:08:12.475433  2608 net.cpp:103] Top shape: 1 256 81 81 (1679616)
I0908 19:08:12.475462  2608 layer_factory.hpp:78] Creating layer conv3_3
I0908 19:08:12.475502  2608 net.cpp:67] Creating Layer conv3_3
I0908 19:08:12.475528  2608 net.cpp:394] conv3_3 <- conv3_2
I0908 19:08:12.475555  2608 net.cpp:356] conv3_3 -> conv3_3
I0908 19:08:12.475627  2608 net.cpp:96] Setting up conv3_3
I0908 19:08:12.479367  2608 net.cpp:103] Top shape: 1 256 81 81 (1679616)
I0908 19:08:12.479421  2608 layer_factory.hpp:78] Creating layer relu3_3
I0908 19:08:12.479449  2608 net.cpp:67] Creating Layer relu3_3
I0908 19:08:12.479465  2608 net.cpp:394] relu3_3 <- conv3_3
I0908 19:08:12.479481  2608 net.cpp:345] relu3_3 -> conv3_3 (in-place)
I0908 19:08:12.479498  2608 net.cpp:96] Setting up relu3_3
I0908 19:08:12.479509  2608 net.cpp:103] Top shape: 1 256 81 81 (1679616)
I0908 19:08:12.479521  2608 layer_factory.hpp:78] Creating layer pool3
I0908 19:08:12.479534  2608 net.cpp:67] Creating Layer pool3
I0908 19:08:12.479543  2608 net.cpp:394] pool3 <- conv3_3
I0908 19:08:12.479600  2608 net.cpp:356] pool3 -> pool3
I0908 19:08:12.479619  2608 net.cpp:96] Setting up pool3
I0908 19:08:12.479640  2608 net.cpp:103] Top shape: 1 256 41 41 (430336)
I0908 19:08:12.479657  2608 layer_factory.hpp:78] Creating layer conv4_1
I0908 19:08:12.479678  2608 net.cpp:67] Creating Layer conv4_1
I0908 19:08:12.479689  2608 net.cpp:394] conv4_1 <- pool3
I0908 19:08:12.479707  2608 net.cpp:356] conv4_1 -> conv4_1
I0908 19:08:12.479722  2608 net.cpp:96] Setting up conv4_1
I0908 19:08:12.483027  2608 net.cpp:103] Top shape: 1 512 41 41 (860672)
I0908 19:08:12.483067  2608 layer_factory.hpp:78] Creating layer relu4_1
I0908 19:08:12.483083  2608 net.cpp:67] Creating Layer relu4_1
I0908 19:08:12.483094  2608 net.cpp:394] relu4_1 <- conv4_1
I0908 19:08:12.483114  2608 net.cpp:345] relu4_1 -> conv4_1 (in-place)
I0908 19:08:12.483130  2608 net.cpp:96] Setting up relu4_1
I0908 19:08:12.483141  2608 net.cpp:103] Top shape: 1 512 41 41 (860672)
I0908 19:08:12.483151  2608 layer_factory.hpp:78] Creating layer conv4_2
I0908 19:08:12.483165  2608 net.cpp:67] Creating Layer conv4_2
I0908 19:08:12.483172  2608 net.cpp:394] conv4_2 <- conv4_1
I0908 19:08:12.483183  2608 net.cpp:356] conv4_2 -> conv4_2
I0908 19:08:12.483240  2608 net.cpp:96] Setting up conv4_2
I0908 19:08:12.486886  2608 net.cpp:103] Top shape: 1 512 41 41 (860672)
I0908 19:08:12.486923  2608 layer_factory.hpp:78] Creating layer relu4_2
I0908 19:08:12.486938  2608 net.cpp:67] Creating Layer relu4_2
I0908 19:08:12.486946  2608 net.cpp:394] relu4_2 <- conv4_2
I0908 19:08:12.486956  2608 net.cpp:345] relu4_2 -> conv4_2 (in-place)
I0908 19:08:12.486968  2608 net.cpp:96] Setting up relu4_2
I0908 19:08:12.486975  2608 net.cpp:103] Top shape: 1 512 41 41 (860672)
I0908 19:08:12.486982  2608 layer_factory.hpp:78] Creating layer conv4_3
I0908 19:08:12.486992  2608 net.cpp:67] Creating Layer conv4_3
I0908 19:08:12.486999  2608 net.cpp:394] conv4_3 <- conv4_2
I0908 19:08:12.487009  2608 net.cpp:356] conv4_3 -> conv4_3
I0908 19:08:12.487020  2608 net.cpp:96] Setting up conv4_3
I0908 19:08:12.490916  2608 net.cpp:103] Top shape: 1 512 41 41 (860672)
I0908 19:08:12.490947  2608 layer_factory.hpp:78] Creating layer relu4_3
I0908 19:08:12.490958  2608 net.cpp:67] Creating Layer relu4_3
I0908 19:08:12.490967  2608 net.cpp:394] relu4_3 <- conv4_3
I0908 19:08:12.490977  2608 net.cpp:345] relu4_3 -> conv4_3 (in-place)
I0908 19:08:12.490986  2608 net.cpp:96] Setting up relu4_3
I0908 19:08:12.490993  2608 net.cpp:103] Top shape: 1 512 41 41 (860672)
I0908 19:08:12.490998  2608 layer_factory.hpp:78] Creating layer pool4
I0908 19:08:12.491006  2608 net.cpp:67] Creating Layer pool4
I0908 19:08:12.491011  2608 net.cpp:394] pool4 <- conv4_3
I0908 19:08:12.491019  2608 net.cpp:356] pool4 -> pool4
I0908 19:08:12.491029  2608 net.cpp:96] Setting up pool4
I0908 19:08:12.491039  2608 net.cpp:103] Top shape: 1 512 41 41 (860672)
I0908 19:08:12.491044  2608 layer_factory.hpp:78] Creating layer conv5_1
I0908 19:08:12.491055  2608 net.cpp:67] Creating Layer conv5_1
I0908 19:08:12.491061  2608 net.cpp:394] conv5_1 <- pool4
I0908 19:08:12.491070  2608 net.cpp:356] conv5_1 -> conv5_1
I0908 19:08:12.491077  2608 net.cpp:96] Setting up conv5_1
I0908 19:08:12.494102  2608 net.cpp:103] Top shape: 1 512 41 41 (860672)
I0908 19:08:12.494141  2608 layer_factory.hpp:78] Creating layer relu5_1
I0908 19:08:12.494156  2608 net.cpp:67] Creating Layer relu5_1
I0908 19:08:12.494166  2608 net.cpp:394] relu5_1 <- conv5_1
I0908 19:08:12.494177  2608 net.cpp:345] relu5_1 -> conv5_1 (in-place)
I0908 19:08:12.494189  2608 net.cpp:96] Setting up relu5_1
I0908 19:08:12.494196  2608 net.cpp:103] Top shape: 1 512 41 41 (860672)
I0908 19:08:12.494202  2608 layer_factory.hpp:78] Creating layer conv5_2
I0908 19:08:12.494215  2608 net.cpp:67] Creating Layer conv5_2
I0908 19:08:12.494221  2608 net.cpp:394] conv5_2 <- conv5_1
I0908 19:08:12.494230  2608 net.cpp:356] conv5_2 -> conv5_2
I0908 19:08:12.494240  2608 net.cpp:96] Setting up conv5_2
I0908 19:08:12.496505  2608 net.cpp:103] Top shape: 1 512 41 41 (860672)
I0908 19:08:12.496536  2608 layer_factory.hpp:78] Creating layer relu5_2
I0908 19:08:12.496544  2608 net.cpp:67] Creating Layer relu5_2
I0908 19:08:12.496551  2608 net.cpp:394] relu5_2 <- conv5_2
I0908 19:08:12.496558  2608 net.cpp:345] relu5_2 -> conv5_2 (in-place)
I0908 19:08:12.496567  2608 net.cpp:96] Setting up relu5_2
I0908 19:08:12.496570  2608 net.cpp:103] Top shape: 1 512 41 41 (860672)
I0908 19:08:12.496575  2608 layer_factory.hpp:78] Creating layer conv5_3
I0908 19:08:12.496582  2608 net.cpp:67] Creating Layer conv5_3
I0908 19:08:12.496587  2608 net.cpp:394] conv5_3 <- conv5_2
I0908 19:08:12.496593  2608 net.cpp:356] conv5_3 -> conv5_3
I0908 19:08:12.496599  2608 net.cpp:96] Setting up conv5_3
I0908 19:08:12.499233  2608 net.cpp:103] Top shape: 1 512 41 41 (860672)
I0908 19:08:12.499256  2608 layer_factory.hpp:78] Creating layer relu5_3
I0908 19:08:12.499266  2608 net.cpp:67] Creating Layer relu5_3
I0908 19:08:12.499274  2608 net.cpp:394] relu5_3 <- conv5_3
I0908 19:08:12.499281  2608 net.cpp:345] relu5_3 -> conv5_3 (in-place)
I0908 19:08:12.499292  2608 net.cpp:96] Setting up relu5_3
I0908 19:08:12.499299  2608 net.cpp:103] Top shape: 1 512 41 41 (860672)
I0908 19:08:12.499325  2608 layer_factory.hpp:78] Creating layer pool5
I0908 19:08:12.499335  2608 net.cpp:67] Creating Layer pool5
I0908 19:08:12.499341  2608 net.cpp:394] pool5 <- conv5_3
I0908 19:08:12.499349  2608 net.cpp:356] pool5 -> pool5
I0908 19:08:12.499359  2608 net.cpp:96] Setting up pool5
I0908 19:08:12.499368  2608 net.cpp:103] Top shape: 1 512 41 41 (860672)
I0908 19:08:12.499375  2608 layer_factory.hpp:78] Creating layer pool5a
I0908 19:08:12.499389  2608 net.cpp:67] Creating Layer pool5a
I0908 19:08:12.499397  2608 net.cpp:394] pool5a <- pool5
I0908 19:08:12.499404  2608 net.cpp:356] pool5a -> pool5a
I0908 19:08:12.499413  2608 net.cpp:96] Setting up pool5a
I0908 19:08:12.499421  2608 net.cpp:103] Top shape: 1 512 41 41 (860672)
I0908 19:08:12.499428  2608 layer_factory.hpp:78] Creating layer fc6
I0908 19:08:12.499447  2608 net.cpp:67] Creating Layer fc6
I0908 19:08:12.499454  2608 net.cpp:394] fc6 <- pool5a
I0908 19:08:12.499461  2608 net.cpp:356] fc6 -> fc6
I0908 19:08:12.499470  2608 net.cpp:96] Setting up fc6
I0908 19:08:12.503582  2608 net.cpp:103] Top shape: 1 1024 41 41 (1721344)
I0908 19:08:12.503623  2608 layer_factory.hpp:78] Creating layer relu6
I0908 19:08:12.503634  2608 net.cpp:67] Creating Layer relu6
I0908 19:08:12.503640  2608 net.cpp:394] relu6 <- fc6
I0908 19:08:12.503649  2608 net.cpp:345] relu6 -> fc6 (in-place)
I0908 19:08:12.503659  2608 net.cpp:96] Setting up relu6
I0908 19:08:12.503665  2608 net.cpp:103] Top shape: 1 1024 41 41 (1721344)
I0908 19:08:12.503672  2608 layer_factory.hpp:78] Creating layer drop6
I0908 19:08:12.503684  2608 net.cpp:67] Creating Layer drop6
I0908 19:08:12.503690  2608 net.cpp:394] drop6 <- fc6
I0908 19:08:12.503698  2608 net.cpp:345] drop6 -> fc6 (in-place)
I0908 19:08:12.503706  2608 net.cpp:96] Setting up drop6
I0908 19:08:12.503713  2608 net.cpp:103] Top shape: 1 1024 41 41 (1721344)
I0908 19:08:12.503720  2608 layer_factory.hpp:78] Creating layer fc7
I0908 19:08:12.503729  2608 net.cpp:67] Creating Layer fc7
I0908 19:08:12.503736  2608 net.cpp:394] fc7 <- fc6
I0908 19:08:12.503746  2608 net.cpp:356] fc7 -> fc7
I0908 19:08:12.503757  2608 net.cpp:96] Setting up fc7
I0908 19:08:12.504853  2608 net.cpp:103] Top shape: 1 1024 41 41 (1721344)
I0908 19:08:12.504876  2608 layer_factory.hpp:78] Creating layer relu7
I0908 19:08:12.504887  2608 net.cpp:67] Creating Layer relu7
I0908 19:08:12.504894  2608 net.cpp:394] relu7 <- fc7
I0908 19:08:12.504901  2608 net.cpp:345] relu7 -> fc7 (in-place)
I0908 19:08:12.504909  2608 net.cpp:96] Setting up relu7
I0908 19:08:12.504914  2608 net.cpp:103] Top shape: 1 1024 41 41 (1721344)
I0908 19:08:12.504917  2608 layer_factory.hpp:78] Creating layer drop7
I0908 19:08:12.504925  2608 net.cpp:67] Creating Layer drop7
I0908 19:08:12.504930  2608 net.cpp:394] drop7 <- fc7
I0908 19:08:12.504936  2608 net.cpp:345] drop7 -> fc7 (in-place)
I0908 19:08:12.504943  2608 net.cpp:96] Setting up drop7
I0908 19:08:12.504950  2608 net.cpp:103] Top shape: 1 1024 41 41 (1721344)
I0908 19:08:12.504954  2608 layer_factory.hpp:78] Creating layer fc8_food17
I0908 19:08:12.504966  2608 net.cpp:67] Creating Layer fc8_food17
I0908 19:08:12.504971  2608 net.cpp:394] fc8_food17 <- fc7
I0908 19:08:12.504978  2608 net.cpp:356] fc8_food17 -> fc8_food17
I0908 19:08:12.504987  2608 net.cpp:96] Setting up fc8_food17
I0908 19:08:12.505321  2608 net.cpp:103] Top shape: 1 18 41 41 (30258)
I0908 19:08:12.505328  2608 layer_factory.hpp:78] Creating layer fc8_food17_fc8_food17_0_split
I0908 19:08:12.505336  2608 net.cpp:67] Creating Layer fc8_food17_fc8_food17_0_split
I0908 19:08:12.505342  2608 net.cpp:394] fc8_food17_fc8_food17_0_split <- fc8_food17
I0908 19:08:12.505350  2608 net.cpp:356] fc8_food17_fc8_food17_0_split -> fc8_food17_fc8_food17_0_split_0
I0908 19:08:12.505362  2608 net.cpp:356] fc8_food17_fc8_food17_0_split -> fc8_food17_fc8_food17_0_split_1
I0908 19:08:12.505370  2608 net.cpp:96] Setting up fc8_food17_fc8_food17_0_split
I0908 19:08:12.505378  2608 net.cpp:103] Top shape: 1 18 41 41 (30258)
I0908 19:08:12.505383  2608 net.cpp:103] Top shape: 1 18 41 41 (30258)
I0908 19:08:12.505405  2608 layer_factory.hpp:78] Creating layer label_shrink
I0908 19:08:12.505442  2608 net.cpp:67] Creating Layer label_shrink
I0908 19:08:12.505448  2608 net.cpp:394] label_shrink <- label
I0908 19:08:12.505455  2608 net.cpp:356] label_shrink -> label_shrink
I0908 19:08:12.505467  2608 net.cpp:96] Setting up label_shrink
I0908 19:08:12.505475  2608 net.cpp:103] Top shape: 1 1 41 41 (1681)
I0908 19:08:12.505491  2608 layer_factory.hpp:78] Creating layer label_shrink_label_shrink_0_split
I0908 19:08:12.505499  2608 net.cpp:67] Creating Layer label_shrink_label_shrink_0_split
I0908 19:08:12.505506  2608 net.cpp:394] label_shrink_label_shrink_0_split <- label_shrink
I0908 19:08:12.505513  2608 net.cpp:356] label_shrink_label_shrink_0_split -> label_shrink_label_shrink_0_split_0
I0908 19:08:12.505525  2608 net.cpp:356] label_shrink_label_shrink_0_split -> label_shrink_label_shrink_0_split_1
I0908 19:08:12.505534  2608 net.cpp:96] Setting up label_shrink_label_shrink_0_split
I0908 19:08:12.505540  2608 net.cpp:103] Top shape: 1 1 41 41 (1681)
I0908 19:08:12.505547  2608 net.cpp:103] Top shape: 1 1 41 41 (1681)
I0908 19:08:12.505553  2608 layer_factory.hpp:78] Creating layer loss
I0908 19:08:12.505815  2608 net.cpp:67] Creating Layer loss
I0908 19:08:12.505821  2608 net.cpp:394] loss <- fc8_food17_fc8_food17_0_split_0
I0908 19:08:12.505827  2608 net.cpp:394] loss <- label_shrink_label_shrink_0_split_0
I0908 19:08:12.505843  2608 net.cpp:356] loss -> (automatic)
I0908 19:08:12.505851  2608 net.cpp:96] Setting up loss
I0908 19:08:12.505858  2608 softmax_loss_layer.cpp:40] Weight_Loss file is not provided. Assign all one to it.
I0908 19:08:12.505867  2608 net.cpp:103] Top shape: 1 1 1 1 (1)
I0908 19:08:12.505872  2608 net.cpp:109]     with loss weight 1
I0908 19:08:12.505893  2608 layer_factory.hpp:78] Creating layer accuracy
I0908 19:08:12.505903  2608 net.cpp:67] Creating Layer accuracy
I0908 19:08:12.505909  2608 net.cpp:394] accuracy <- fc8_food17_fc8_food17_0_split_1
I0908 19:08:12.505916  2608 net.cpp:394] accuracy <- label_shrink_label_shrink_0_split_1
I0908 19:08:12.505923  2608 net.cpp:356] accuracy -> accuracy
I0908 19:08:12.505934  2608 net.cpp:96] Setting up accuracy
I0908 19:08:12.505945  2608 net.cpp:103] Top shape: 1 1 1 3 (3)
I0908 19:08:12.505951  2608 net.cpp:172] accuracy does not need backward computation.
I0908 19:08:12.505956  2608 net.cpp:170] loss needs backward computation.
I0908 19:08:12.505964  2608 net.cpp:172] label_shrink_label_shrink_0_split does not need backward computation.
I0908 19:08:12.505970  2608 net.cpp:172] label_shrink does not need backward computation.
I0908 19:08:12.505975  2608 net.cpp:170] fc8_food17_fc8_food17_0_split needs backward computation.
…
