…
I0908 21:15:40.031388  2074 solver.cpp:58] Creating training net from train_net file: food17/config/food17/train_train.prototxt
I0908 21:15:40.031836  2074 net.cpp:39] Initializing net from parameters: 
name: "food17"
layers {
  top: "data"
  top: "label"
  name: "data"
  type: IMAGE_SEG_DATA
  image_data_param {
    source: "food17/list/train.txt"
    batch_size: 1
    shuffle: true
    root_folder: "/home/khanhngan/tuan.khai/DeepLab-Context/food_data"
    label_type: PIXEL
  }
  include {
    phase: TRAIN
  }
  transform_param {
    mirror: true
    crop_size: 321
    mean_value: 97.382
    mean_value: 97.709
    mean_value: 98.044
  }
}
layers {
  bottom: "data"
  top: "conv1_1"
  name: "conv1_1"
  type: CONVOLUTION
  blobs_lr: 1
  blobs_lr: 2
  weight_decay: 1
  weight_decay: 0
  convolution_param {
    num_output: 64
    pad: 1
    kernel_size: 3
  }
}
layers {
  bottom: "conv1_1"
  top: "conv1_1"
  name: "relu1_1"
  type: RELU
}
layers {
  bottom: "conv1_1"
  top: "conv1_2"
  name: "conv1_2"
  type: CONVOLUTION
  blobs_lr: 1
  blobs_lr: 2
  weight_decay: 1
  weight_decay: 0
  convolution_param {
    num_output: 64
    pad: 1
    kernel_size: 3
  }
}
layers {
  bottom: "conv1_2"
  top: "conv1_2"
  name: "relu1_2"
  type: RELU
}
layers {
  bottom: "conv1_2"
  top: "pool1"
  name: "pool1"
  type: POOLING
  pooling_param {
    pool: MAX
    kernel_size: 3
    stride: 2
    pad: 1
  }
}
layers {
  bottom: "pool1"
  top: "conv2_1"
  name: "conv2_1"
  type: CONVOLUTION
  blobs_lr: 1
  blobs_lr: 2
  weight_decay: 1
  weight_decay: 0
  convolution_param {
    num_output: 128
    pad: 1
    kernel_size: 3
  }
}
layers {
  bottom: "conv2_1"
  top: "conv2_1"
  name: "relu2_1"
  type: RELU
}
layers {
  bottom: "conv2_1"
  top: "conv2_2"
  name: "conv2_2"
  type: CONVOLUTION
  blobs_lr: 1
  blobs_lr: 2
  weight_decay: 1
  weight_decay: 0
  convolution_param {
    num_output: 128
    pad: 1
    kernel_size: 3
  }
}
layers {
  bottom: "conv2_2"
  top: "conv2_2"
  name: "relu2_2"
  type: RELU
}
layers {
  bottom: "conv2_2"
  top: "pool2"
  name: "pool2"
  type: POOLING
  pooling_param {
    pool: MAX
    kernel_size: 3
    stride: 2
    pad: 1
  }
}
layers {
  bottom: "pool2"
  top: "conv3_1"
  name: "conv3_1"
  type: CONVOLUTION
  blobs_lr: 1
  blobs_lr: 2
  weight_decay: 1
  weight_decay: 0
  convolution_param {
    num_output: 256
    pad: 1
    kernel_size: 3
  }
}
layers {
  bottom: "conv3_1"
  top: "conv3_1"
  name: "relu3_1"
  type: RELU
}
layers {
  bottom: "conv3_1"
  top: "conv3_2"
  name: "conv3_2"
  type: CONVOLUTION
  blobs_lr: 1
  blobs_lr: 2
  weight_decay: 1
  weight_decay: 0
  convolution_param {
    num_output: 256
    pad: 1
    kernel_size: 3
  }
}
layers {
  bottom: "conv3_2"
  top: "conv3_2"
  name: "relu3_2"
  type: RELU
}
layers {
  bottom: "conv3_2"
  top: "conv3_3"
  name: "conv3_3"
  type: CONVOLUTION
  blobs_lr: 1
  blobs_lr: 2
  weight_decay: 1
  weight_decay: 0
  convolution_param {
    num_output: 256
    pad: 1
    kernel_size: 3
  }
}
layers {
  bottom: "conv3_3"
  top: "conv3_3"
  name: "relu3_3"
  type: RELU
}
layers {
  bottom: "conv3_3"
  top: "pool3"
  name: "pool3"
  type: POOLING
  pooling_param {
    pool: MAX
    kernel_size: 3
    stride: 2
    pad: 1
  }
}
layers {
  bottom: "pool3"
  top: "conv4_1"
  name: "conv4_1"
  type: CONVOLUTION
  blobs_lr: 1
  blobs_lr: 2
  weight_decay: 1
  weight_decay: 0
  convolution_param {
    num_output: 512
    pad: 1
    kernel_size: 3
  }
}
layers {
  bottom: "conv4_1"
  top: "conv4_1"
  name: "relu4_1"
  type: RELU
}
layers {
  bottom: "conv4_1"
  top: "conv4_2"
  name: "conv4_2"
  type: CONVOLUTION
  blobs_lr: 1
  blobs_lr: 2
  weight_decay: 1
  weight_decay: 0
  convolution_param {
    num_output: 512
    pad: 1
    kernel_size: 3
  }
}
layers {
  bottom: "conv4_2"
  top: "conv4_2"
  name: "relu4_2"
  type: RELU
}
layers {
  bottom: "conv4_2"
  top: "conv4_3"
  name: "conv4_3"
  type: CONVOLUTION
  blobs_lr: 1
  blobs_lr: 2
  weight_decay: 1
  weight_decay: 0
  convolution_param {
    num_output: 512
    pad: 1
    kernel_size: 3
  }
}
layers {
  bottom: "conv4_3"
  top: "conv4_3"
  name: "relu4_3"
  type: RELU
}
layers {
  bottom: "conv4_3"
  top: "pool4"
  name: "pool4"
  type: POOLING
  pooling_param {
    pool: MAX
    kernel_size: 3
    stride: 1
    pad: 1
  }
}
layers {
  bottom: "pool4"
  top: "conv5_1"
  name: "conv5_1"
  type: CONVOLUTION
  blobs_lr: 1
  blobs_lr: 2
  weight_decay: 1
  weight_decay: 0
  convolution_param {
    num_output: 512
    pad: 2
    kernel_size: 3
    hole: 2
  }
}
layers {
  bottom: "conv5_1"
  top: "conv5_1"
  name: "relu5_1"
  type: RELU
}
layers {
  bottom: "conv5_1"
  top: "conv5_2"
  name: "conv5_2"
  type: CONVOLUTION
  blobs_lr: 1
  blobs_lr: 2
  weight_decay: 1
  weight_decay: 0
  convolution_param {
    num_output: 512
    pad: 2
    kernel_size: 3
    hole: 2
  }
}
layers {
  bottom: "conv5_2"
  top: "conv5_2"
  name: "relu5_2"
  type: RELU
}
layers {
  bottom: "conv5_2"
  top: "conv5_3"
  name: "conv5_3"
  type: CONVOLUTION
  blobs_lr: 1
  blobs_lr: 2
  weight_decay: 1
  weight_decay: 0
  convolution_param {
    num_output: 512
    pad: 2
    kernel_size: 3
    hole: 2
  }
}
layers {
  bottom: "conv5_3"
  top: "conv5_3"
  name: "relu5_3"
  type: RELU
}
layers {
  bottom: "conv5_3"
  top: "pool5"
  name: "pool5"
  type: POOLING
  pooling_param {
    pool: MAX
    kernel_size: 3
    stride: 1
    pad: 1
  }
}
layers {
  bottom: "pool5"
  top: "pool5a"
  name: "pool5a"
  type: POOLING
  pooling_param {
    pool: AVE
    kernel_size: 3
    stride: 1
    pad: 1
  }
}
layers {
  bottom: "pool5a"
  top: "fc6"
  name: "fc6"
  type: CONVOLUTION
  blobs_lr: 1
  blobs_lr: 2
  weight_decay: 1
  weight_decay: 0
  convolution_param {
    num_output: 1024
    pad: 12
    kernel_size: 3
    hole: 12
  }
}
layers {
  bottom: "fc6"
  top: "fc6"
  name: "relu6"
  type: RELU
}
layers {
  bottom: "fc6"
  top: "fc6"
  name: "drop6"
  type: DROPOUT
  dropout_param {
    dropout_ratio: 0.5
  }
}
layers {
  bottom: "fc6"
  top: "fc7"
  name: "fc7"
  type: CONVOLUTION
  blobs_lr: 1
  blobs_lr: 2
  weight_decay: 1
  weight_decay: 0
  convolution_param {
    num_output: 1024
    kernel_size: 1
  }
}
layers {
  bottom: "fc7"
  top: "fc7"
  name: "relu7"
  type: RELU
}
layers {
  bottom: "fc7"
  top: "fc7"
  name: "drop7"
  type: DROPOUT
  dropout_param {
    dropout_ratio: 0.5
  }
}
layers {
  bottom: "fc7"
  top: "fc8_food17"
  name: "fc8_food17"
  type: CONVOLUTION
  blobs_lr: 10
  blobs_lr: 20
  weight_decay: 1
  weight_decay: 0
  convolution_param {
    num_output: 18
    kernel_size: 1
    weight_filler {
      type: "gaussian"
      std: 0.01
    }
    bias_filler {
      type: "constant"
      value: 0
    }
  }
}
layers {
  bottom: "label"
  top: "label_shrink"
  name: "label_shrink"
  type: INTERP
  interp_param {
    shrink_factor: 8
    pad_beg: 0
    pad_end: 0
  }
}
layers {
  bottom: "fc8_food17"
  bottom: "label_shrink"
  name: "loss"
  type: SOFTMAX_LOSS
  include {
    phase: TRAIN
  }
  softmaxloss_param {
    ignore_label: 255
  }
}
layers {
  bottom: "fc8_food17"
  bottom: "label_shrink"
  top: "accuracy"
  name: "accuracy"
  type: SEG_ACCURACY
  seg_accuracy_param {
    ignore_label: 255
  }
}
state {
  phase: TRAIN
}
I0908 21:15:40.081435  2074 layer_factory.hpp:78] Creating layer data
I0908 21:15:40.090873  2074 net.cpp:67] Creating Layer data
I0908 21:15:40.090901  2074 net.cpp:356] data -> data
I0908 21:15:40.090916  2074 net.cpp:356] data -> label
I0908 21:15:40.090925  2074 net.cpp:356] data -> (automatic)
I0908 21:15:40.090929  2074 net.cpp:96] Setting up data
I0908 21:15:40.090958  2074 image_seg_data_layer.cpp:45] Opening file food17/list/train.txt
I0908 21:15:40.102066  2074 image_seg_data_layer.cpp:62] Shuffling data
I0908 21:15:40.102587  2074 image_seg_data_layer.cpp:67] A total of 2594 images.
I0908 21:15:40.290505  2074 image_seg_data_layer.cpp:113] output data size: 1,3,321,321
I0908 21:15:40.290526  2074 image_seg_data_layer.cpp:117] output label size: 1,1,321,321
I0908 21:15:40.290532  2074 image_seg_data_layer.cpp:121] output data_dim size: 1,1,1,2
I0908 21:15:40.290695  2074 net.cpp:103] Top shape: 1 3 321 321 (309123)
I0908 21:15:40.290724  2074 net.cpp:103] Top shape: 1 1 321 321 (103041)
I0908 21:15:40.290730  2074 net.cpp:103] Top shape: 1 1 1 2 (2)
I0908 21:15:40.290735  2074 layer_factory.hpp:78] Creating layer conv1_1
I0908 21:15:40.290747  2074 net.cpp:67] Creating Layer conv1_1
I0908 21:15:40.290752  2074 net.cpp:394] conv1_1 <- data
I0908 21:15:40.290766  2074 net.cpp:356] conv1_1 -> conv1_1
I0908 21:15:40.290773  2074 net.cpp:96] Setting up conv1_1
I0908 21:15:40.291399  2074 net.cpp:103] Top shape: 1 64 321 321 (6594624)
I0908 21:15:40.291415  2074 layer_factory.hpp:78] Creating layer relu1_1
I0908 21:15:40.291424  2074 net.cpp:67] Creating Layer relu1_1
I0908 21:15:40.291429  2074 net.cpp:394] relu1_1 <- conv1_1
I0908 21:15:40.291435  2074 net.cpp:345] relu1_1 -> conv1_1 (in-place)
I0908 21:15:40.291440  2074 net.cpp:96] Setting up relu1_1
I0908 21:15:40.393278  2074 net.cpp:103] Top shape: 1 64 321 321 (6594624)
I0908 21:15:40.393303  2074 layer_factory.hpp:78] Creating layer conv1_2
I0908 21:15:40.393312  2074 net.cpp:67] Creating Layer conv1_2
I0908 21:15:40.393316  2074 net.cpp:394] conv1_2 <- conv1_1
I0908 21:15:40.393321  2074 net.cpp:356] conv1_2 -> conv1_2
I0908 21:15:40.393331  2074 net.cpp:96] Setting up conv1_2
I0908 21:15:40.393507  2074 net.cpp:103] Top shape: 1 64 321 321 (6594624)
I0908 21:15:40.393523  2074 layer_factory.hpp:78] Creating layer relu1_2
I0908 21:15:40.393530  2074 net.cpp:67] Creating Layer relu1_2
I0908 21:15:40.393533  2074 net.cpp:394] relu1_2 <- conv1_2
I0908 21:15:40.393537  2074 net.cpp:345] relu1_2 -> conv1_2 (in-place)
I0908 21:15:40.393543  2074 net.cpp:96] Setting up relu1_2
I0908 21:15:40.393545  2074 net.cpp:103] Top shape: 1 64 321 321 (6594624)
I0908 21:15:40.393548  2074 layer_factory.hpp:78] Creating layer pool1
I0908 21:15:40.393555  2074 net.cpp:67] Creating Layer pool1
I0908 21:15:40.393561  2074 net.cpp:394] pool1 <- conv1_2
I0908 21:15:40.393569  2074 net.cpp:356] pool1 -> pool1
I0908 21:15:40.393579  2074 net.cpp:96] Setting up pool1
I0908 21:15:40.393976  2074 net.cpp:103] Top shape: 1 64 161 161 (1658944)
I0908 21:15:40.393996  2074 layer_factory.hpp:78] Creating layer conv2_1
I0908 21:15:40.394007  2074 net.cpp:67] Creating Layer conv2_1
I0908 21:15:40.394013  2074 net.cpp:394] conv2_1 <- pool1
I0908 21:15:40.394021  2074 net.cpp:356] conv2_1 -> conv2_1
I0908 21:15:40.394029  2074 net.cpp:96] Setting up conv2_1
I0908 21:15:40.394181  2074 net.cpp:103] Top shape: 1 128 161 161 (3317888)
I0908 21:15:40.394197  2074 layer_factory.hpp:78] Creating layer relu2_1
I0908 21:15:40.394204  2074 net.cpp:67] Creating Layer relu2_1
I0908 21:15:40.394209  2074 net.cpp:394] relu2_1 <- conv2_1
I0908 21:15:40.394215  2074 net.cpp:345] relu2_1 -> conv2_1 (in-place)
I0908 21:15:40.394222  2074 net.cpp:96] Setting up relu2_1
I0908 21:15:40.394227  2074 net.cpp:103] Top shape: 1 128 161 161 (3317888)
I0908 21:15:40.394232  2074 layer_factory.hpp:78] Creating layer conv2_2
I0908 21:15:40.394239  2074 net.cpp:67] Creating Layer conv2_2
I0908 21:15:40.394245  2074 net.cpp:394] conv2_2 <- conv2_1
I0908 21:15:40.394253  2074 net.cpp:356] conv2_2 -> conv2_2
I0908 21:15:40.394261  2074 net.cpp:96] Setting up conv2_2
I0908 21:15:40.394491  2074 net.cpp:103] Top shape: 1 128 161 161 (3317888)
I0908 21:15:40.394507  2074 layer_factory.hpp:78] Creating layer relu2_2
I0908 21:15:40.394515  2074 net.cpp:67] Creating Layer relu2_2
I0908 21:15:40.394518  2074 net.cpp:394] relu2_2 <- conv2_2
I0908 21:15:40.394524  2074 net.cpp:345] relu2_2 -> conv2_2 (in-place)
I0908 21:15:40.394531  2074 net.cpp:96] Setting up relu2_2
I0908 21:15:40.394536  2074 net.cpp:103] Top shape: 1 128 161 161 (3317888)
I0908 21:15:40.394541  2074 layer_factory.hpp:78] Creating layer pool2
I0908 21:15:40.394572  2074 net.cpp:67] Creating Layer pool2
I0908 21:15:40.394579  2074 net.cpp:394] pool2 <- conv2_2
I0908 21:15:40.394587  2074 net.cpp:356] pool2 -> pool2
I0908 21:15:40.394598  2074 net.cpp:96] Setting up pool2
I0908 21:15:40.394604  2074 net.cpp:103] Top shape: 1 128 81 81 (839808)
I0908 21:15:40.394610  2074 layer_factory.hpp:78] Creating layer conv3_1
I0908 21:15:40.394618  2074 net.cpp:67] Creating Layer conv3_1
I0908 21:15:40.394623  2074 net.cpp:394] conv3_1 <- pool2
I0908 21:15:40.394629  2074 net.cpp:356] conv3_1 -> conv3_1
I0908 21:15:40.394636  2074 net.cpp:96] Setting up conv3_1
I0908 21:15:40.395009  2074 net.cpp:103] Top shape: 1 256 81 81 (1679616)
I0908 21:15:40.395026  2074 layer_factory.hpp:78] Creating layer relu3_1
I0908 21:15:40.395032  2074 net.cpp:67] Creating Layer relu3_1
I0908 21:15:40.395035  2074 net.cpp:394] relu3_1 <- conv3_1
I0908 21:15:40.395040  2074 net.cpp:345] relu3_1 -> conv3_1 (in-place)
I0908 21:15:40.395043  2074 net.cpp:96] Setting up relu3_1
I0908 21:15:40.395046  2074 net.cpp:103] Top shape: 1 256 81 81 (1679616)
I0908 21:15:40.395048  2074 layer_factory.hpp:78] Creating layer conv3_2
I0908 21:15:40.395052  2074 net.cpp:67] Creating Layer conv3_2
I0908 21:15:40.395056  2074 net.cpp:394] conv3_2 <- conv3_1
I0908 21:15:40.395062  2074 net.cpp:356] conv3_2 -> conv3_2
I0908 21:15:40.395068  2074 net.cpp:96] Setting up conv3_2
I0908 21:15:40.395779  2074 net.cpp:103] Top shape: 1 256 81 81 (1679616)
I0908 21:15:40.395793  2074 layer_factory.hpp:78] Creating layer relu3_2
I0908 21:15:40.395799  2074 net.cpp:67] Creating Layer relu3_2
I0908 21:15:40.395803  2074 net.cpp:394] relu3_2 <- conv3_2
I0908 21:15:40.395809  2074 net.cpp:345] relu3_2 -> conv3_2 (in-place)
I0908 21:15:40.395814  2074 net.cpp:96] Setting up relu3_2
I0908 21:15:40.395818  2074 net.cpp:103] Top shape: 1 256 81 81 (1679616)
I0908 21:15:40.395823  2074 layer_factory.hpp:78] Creating layer conv3_3
I0908 21:15:40.395828  2074 net.cpp:67] Creating Layer conv3_3
I0908 21:15:40.395831  2074 net.cpp:394] conv3_3 <- conv3_2
I0908 21:15:40.395838  2074 net.cpp:356] conv3_3 -> conv3_3
I0908 21:15:40.395843  2074 net.cpp:96] Setting up conv3_3
I0908 21:15:40.396522  2074 net.cpp:103] Top shape: 1 256 81 81 (1679616)
I0908 21:15:40.396533  2074 layer_factory.hpp:78] Creating layer relu3_3
I0908 21:15:40.396540  2074 net.cpp:67] Creating Layer relu3_3
I0908 21:15:40.396543  2074 net.cpp:394] relu3_3 <- conv3_3
I0908 21:15:40.396549  2074 net.cpp:345] relu3_3 -> conv3_3 (in-place)
I0908 21:15:40.396554  2074 net.cpp:96] Setting up relu3_3
I0908 21:15:40.396558  2074 net.cpp:103] Top shape: 1 256 81 81 (1679616)
I0908 21:15:40.396561  2074 layer_factory.hpp:78] Creating layer pool3
I0908 21:15:40.396567  2074 net.cpp:67] Creating Layer pool3
I0908 21:15:40.396570  2074 net.cpp:394] pool3 <- conv3_3
I0908 21:15:40.396576  2074 net.cpp:356] pool3 -> pool3
I0908 21:15:40.396582  2074 net.cpp:96] Setting up pool3
I0908 21:15:40.396589  2074 net.cpp:103] Top shape: 1 256 41 41 (430336)
I0908 21:15:40.396591  2074 layer_factory.hpp:78] Creating layer conv4_1
I0908 21:15:40.396597  2074 net.cpp:67] Creating Layer conv4_1
I0908 21:15:40.396601  2074 net.cpp:394] conv4_1 <- pool3
I0908 21:15:40.396608  2074 net.cpp:356] conv4_1 -> conv4_1
I0908 21:15:40.396617  2074 net.cpp:96] Setting up conv4_1
I0908 21:15:40.397694  2074 net.cpp:103] Top shape: 1 512 41 41 (860672)
I0908 21:15:40.397713  2074 layer_factory.hpp:78] Creating layer relu4_1
I0908 21:15:40.397722  2074 net.cpp:67] Creating Layer relu4_1
I0908 21:15:40.397727  2074 net.cpp:394] relu4_1 <- conv4_1
I0908 21:15:40.397733  2074 net.cpp:345] relu4_1 -> conv4_1 (in-place)
I0908 21:15:40.397739  2074 net.cpp:96] Setting up relu4_1
I0908 21:15:40.397743  2074 net.cpp:103] Top shape: 1 512 41 41 (860672)
I0908 21:15:40.397747  2074 layer_factory.hpp:78] Creating layer conv4_2
I0908 21:15:40.397753  2074 net.cpp:67] Creating Layer conv4_2
I0908 21:15:40.397756  2074 net.cpp:394] conv4_2 <- conv4_1
I0908 21:15:40.397764  2074 net.cpp:356] conv4_2 -> conv4_2
I0908 21:15:40.397790  2074 net.cpp:96] Setting up conv4_2
I0908 21:15:40.399709  2074 net.cpp:103] Top shape: 1 512 41 41 (860672)
I0908 21:15:40.399739  2074 layer_factory.hpp:78] Creating layer relu4_2
I0908 21:15:40.399746  2074 net.cpp:67] Creating Layer relu4_2
I0908 21:15:40.399751  2074 net.cpp:394] relu4_2 <- conv4_2
I0908 21:15:40.399760  2074 net.cpp:345] relu4_2 -> conv4_2 (in-place)
I0908 21:15:40.399766  2074 net.cpp:96] Setting up relu4_2
I0908 21:15:40.399771  2074 net.cpp:103] Top shape: 1 512 41 41 (860672)
I0908 21:15:40.399775  2074 layer_factory.hpp:78] Creating layer conv4_3
I0908 21:15:40.399781  2074 net.cpp:67] Creating Layer conv4_3
I0908 21:15:40.399785  2074 net.cpp:394] conv4_3 <- conv4_2
I0908 21:15:40.399791  2074 net.cpp:356] conv4_3 -> conv4_3
I0908 21:15:40.399797  2074 net.cpp:96] Setting up conv4_3
I0908 21:15:40.401386  2074 net.cpp:103] Top shape: 1 512 41 41 (860672)
I0908 21:15:40.401407  2074 layer_factory.hpp:78] Creating layer relu4_3
I0908 21:15:40.401415  2074 net.cpp:67] Creating Layer relu4_3
I0908 21:15:40.401420  2074 net.cpp:394] relu4_3 <- conv4_3
I0908 21:15:40.401427  2074 net.cpp:345] relu4_3 -> conv4_3 (in-place)
I0908 21:15:40.401433  2074 net.cpp:96] Setting up relu4_3
I0908 21:15:40.401437  2074 net.cpp:103] Top shape: 1 512 41 41 (860672)
I0908 21:15:40.401442  2074 layer_factory.hpp:78] Creating layer pool4
I0908 21:15:40.401448  2074 net.cpp:67] Creating Layer pool4
I0908 21:15:40.401453  2074 net.cpp:394] pool4 <- conv4_3
I0908 21:15:40.401458  2074 net.cpp:356] pool4 -> pool4
I0908 21:15:40.401468  2074 net.cpp:96] Setting up pool4
I0908 21:15:40.401474  2074 net.cpp:103] Top shape: 1 512 41 41 (860672)
I0908 21:15:40.401479  2074 layer_factory.hpp:78] Creating layer conv5_1
I0908 21:15:40.401484  2074 net.cpp:67] Creating Layer conv5_1
I0908 21:15:40.401489  2074 net.cpp:394] conv5_1 <- pool4
I0908 21:15:40.401494  2074 net.cpp:356] conv5_1 -> conv5_1
I0908 21:15:40.401500  2074 net.cpp:96] Setting up conv5_1
I0908 21:15:40.403401  2074 net.cpp:103] Top shape: 1 512 41 41 (860672)
I0908 21:15:40.403424  2074 layer_factory.hpp:78] Creating layer relu5_1
I0908 21:15:40.403431  2074 net.cpp:67] Creating Layer relu5_1
I0908 21:15:40.403436  2074 net.cpp:394] relu5_1 <- conv5_1
I0908 21:15:40.403445  2074 net.cpp:345] relu5_1 -> conv5_1 (in-place)
I0908 21:15:40.403451  2074 net.cpp:96] Setting up relu5_1
I0908 21:15:40.403455  2074 net.cpp:103] Top shape: 1 512 41 41 (860672)
I0908 21:15:40.403458  2074 layer_factory.hpp:78] Creating layer conv5_2
I0908 21:15:40.403465  2074 net.cpp:67] Creating Layer conv5_2
I0908 21:15:40.403470  2074 net.cpp:394] conv5_2 <- conv5_1
I0908 21:15:40.403506  2074 net.cpp:356] conv5_2 -> conv5_2
I0908 21:15:40.403514  2074 net.cpp:96] Setting up conv5_2
I0908 21:15:40.405241  2074 net.cpp:103] Top shape: 1 512 41 41 (860672)
I0908 21:15:40.405267  2074 layer_factory.hpp:78] Creating layer relu5_2
I0908 21:15:40.405275  2074 net.cpp:67] Creating Layer relu5_2
I0908 21:15:40.405280  2074 net.cpp:394] relu5_2 <- conv5_2
I0908 21:15:40.405288  2074 net.cpp:345] relu5_2 -> conv5_2 (in-place)
I0908 21:15:40.405295  2074 net.cpp:96] Setting up relu5_2
I0908 21:15:40.405299  2074 net.cpp:103] Top shape: 1 512 41 41 (860672)
I0908 21:15:40.405304  2074 layer_factory.hpp:78] Creating layer conv5_3
I0908 21:15:40.405310  2074 net.cpp:67] Creating Layer conv5_3
I0908 21:15:40.405314  2074 net.cpp:394] conv5_3 <- conv5_2
I0908 21:15:40.405321  2074 net.cpp:356] conv5_3 -> conv5_3
I0908 21:15:40.405328  2074 net.cpp:96] Setting up conv5_3
I0908 21:15:40.407122  2074 net.cpp:103] Top shape: 1 512 41 41 (860672)
I0908 21:15:40.407150  2074 layer_factory.hpp:78] Creating layer relu5_3
I0908 21:15:40.407160  2074 net.cpp:67] Creating Layer relu5_3
I0908 21:15:40.407165  2074 net.cpp:394] relu5_3 <- conv5_3
I0908 21:15:40.407171  2074 net.cpp:345] relu5_3 -> conv5_3 (in-place)
I0908 21:15:40.407178  2074 net.cpp:96] Setting up relu5_3
I0908 21:15:40.407182  2074 net.cpp:103] Top shape: 1 512 41 41 (860672)
I0908 21:15:40.407205  2074 layer_factory.hpp:78] Creating layer pool5
I0908 21:15:40.407212  2074 net.cpp:67] Creating Layer pool5
I0908 21:15:40.407215  2074 net.cpp:394] pool5 <- conv5_3
I0908 21:15:40.407222  2074 net.cpp:356] pool5 -> pool5
I0908 21:15:40.407229  2074 net.cpp:96] Setting up pool5
I0908 21:15:40.407235  2074 net.cpp:103] Top shape: 1 512 41 41 (860672)
I0908 21:15:40.407238  2074 layer_factory.hpp:78] Creating layer pool5a
I0908 21:15:40.407246  2074 net.cpp:67] Creating Layer pool5a
I0908 21:15:40.407250  2074 net.cpp:394] pool5a <- pool5
I0908 21:15:40.407256  2074 net.cpp:356] pool5a -> pool5a
I0908 21:15:40.407263  2074 net.cpp:96] Setting up pool5a
I0908 21:15:40.407266  2074 net.cpp:103] Top shape: 1 512 41 41 (860672)
I0908 21:15:40.407269  2074 layer_factory.hpp:78] Creating layer fc6
I0908 21:15:40.407274  2074 net.cpp:67] Creating Layer fc6
I0908 21:15:40.407277  2074 net.cpp:394] fc6 <- pool5a
I0908 21:15:40.407284  2074 net.cpp:356] fc6 -> fc6
I0908 21:15:40.407289  2074 net.cpp:96] Setting up fc6
I0908 21:15:40.410588  2074 net.cpp:103] Top shape: 1 1024 41 41 (1721344)
I0908 21:15:40.410616  2074 layer_factory.hpp:78] Creating layer relu6
I0908 21:15:40.410627  2074 net.cpp:67] Creating Layer relu6
I0908 21:15:40.410632  2074 net.cpp:394] relu6 <- fc6
I0908 21:15:40.410640  2074 net.cpp:345] relu6 -> fc6 (in-place)
I0908 21:15:40.410647  2074 net.cpp:96] Setting up relu6
I0908 21:15:40.410651  2074 net.cpp:103] Top shape: 1 1024 41 41 (1721344)
I0908 21:15:40.410655  2074 layer_factory.hpp:78] Creating layer drop6
I0908 21:15:40.410661  2074 net.cpp:67] Creating Layer drop6
I0908 21:15:40.410665  2074 net.cpp:394] drop6 <- fc6
I0908 21:15:40.410671  2074 net.cpp:345] drop6 -> fc6 (in-place)
I0908 21:15:40.410676  2074 net.cpp:96] Setting up drop6
I0908 21:15:40.410681  2074 net.cpp:103] Top shape: 1 1024 41 41 (1721344)
I0908 21:15:40.410686  2074 layer_factory.hpp:78] Creating layer fc7
I0908 21:15:40.410691  2074 net.cpp:67] Creating Layer fc7
I0908 21:15:40.410696  2074 net.cpp:394] fc7 <- fc6
I0908 21:15:40.410701  2074 net.cpp:356] fc7 -> fc7
I0908 21:15:40.410708  2074 net.cpp:96] Setting up fc7
I0908 21:15:40.411370  2074 net.cpp:103] Top shape: 1 1024 41 41 (1721344)
I0908 21:15:40.411387  2074 layer_factory.hpp:78] Creating layer relu7
I0908 21:15:40.411396  2074 net.cpp:67] Creating Layer relu7
I0908 21:15:40.411401  2074 net.cpp:394] relu7 <- fc7
I0908 21:15:40.411406  2074 net.cpp:345] relu7 -> fc7 (in-place)
I0908 21:15:40.411412  2074 net.cpp:96] Setting up relu7
I0908 21:15:40.411417  2074 net.cpp:103] Top shape: 1 1024 41 41 (1721344)
I0908 21:15:40.411422  2074 layer_factory.hpp:78] Creating layer drop7
I0908 21:15:40.411427  2074 net.cpp:67] Creating Layer drop7
I0908 21:15:40.411430  2074 net.cpp:394] drop7 <- fc7
I0908 21:15:40.411435  2074 net.cpp:345] drop7 -> fc7 (in-place)
I0908 21:15:40.411440  2074 net.cpp:96] Setting up drop7
I0908 21:15:40.411445  2074 net.cpp:103] Top shape: 1 1024 41 41 (1721344)
I0908 21:15:40.411449  2074 layer_factory.hpp:78] Creating layer fc8_food17
I0908 21:15:40.411456  2074 net.cpp:67] Creating Layer fc8_food17
I0908 21:15:40.411461  2074 net.cpp:394] fc8_food17 <- fc7
I0908 21:15:40.411468  2074 net.cpp:356] fc8_food17 -> fc8_food17
I0908 21:15:40.411484  2074 net.cpp:96] Setting up fc8_food17
I0908 21:15:40.411813  2074 net.cpp:103] Top shape: 1 18 41 41 (30258)
I0908 21:15:40.411820  2074 layer_factory.hpp:78] Creating layer fc8_food17_fc8_food17_0_split
I0908 21:15:40.411828  2074 net.cpp:67] Creating Layer fc8_food17_fc8_food17_0_split
I0908 21:15:40.411834  2074 net.cpp:394] fc8_food17_fc8_food17_0_split <- fc8_food17
I0908 21:15:40.411842  2074 net.cpp:356] fc8_food17_fc8_food17_0_split -> fc8_food17_fc8_food17_0_split_0
I0908 21:15:40.411852  2074 net.cpp:356] fc8_food17_fc8_food17_0_split -> fc8_food17_fc8_food17_0_split_1
I0908 21:15:40.411861  2074 net.cpp:96] Setting up fc8_food17_fc8_food17_0_split
I0908 21:15:40.411869  2074 net.cpp:103] Top shape: 1 18 41 41 (30258)
I0908 21:15:40.411873  2074 net.cpp:103] Top shape: 1 18 41 41 (30258)
I0908 21:15:40.411897  2074 layer_factory.hpp:78] Creating layer label_shrink
I0908 21:15:40.411949  2074 net.cpp:67] Creating Layer label_shrink
I0908 21:15:40.411957  2074 net.cpp:394] label_shrink <- label
I0908 21:15:40.411965  2074 net.cpp:356] label_shrink -> label_shrink
I0908 21:15:40.411973  2074 net.cpp:96] Setting up label_shrink
I0908 21:15:40.411979  2074 net.cpp:103] Top shape: 1 1 41 41 (1681)
I0908 21:15:40.411985  2074 layer_factory.hpp:78] Creating layer label_shrink_label_shrink_0_split
I0908 21:15:40.411991  2074 net.cpp:67] Creating Layer label_shrink_label_shrink_0_split
I0908 21:15:40.411998  2074 net.cpp:394] label_shrink_label_shrink_0_split <- label_shrink
I0908 21:15:40.412005  2074 net.cpp:356] label_shrink_label_shrink_0_split -> label_shrink_label_shrink_0_split_0
I0908 21:15:40.412014  2074 net.cpp:356] label_shrink_label_shrink_0_split -> label_shrink_label_shrink_0_split_1
I0908 21:15:40.412022  2074 net.cpp:96] Setting up label_shrink_label_shrink_0_split
I0908 21:15:40.412029  2074 net.cpp:103] Top shape: 1 1 41 41 (1681)
I0908 21:15:40.412034  2074 net.cpp:103] Top shape: 1 1 41 41 (1681)
I0908 21:15:40.412039  2074 layer_factory.hpp:78] Creating layer loss
I0908 21:15:40.412286  2074 net.cpp:67] Creating Layer loss
I0908 21:15:40.412293  2074 net.cpp:394] loss <- fc8_food17_fc8_food17_0_split_0
I0908 21:15:40.412300  2074 net.cpp:394] loss <- label_shrink_label_shrink_0_split_0
I0908 21:15:40.412312  2074 net.cpp:356] loss -> (automatic)
I0908 21:15:40.412322  2074 net.cpp:96] Setting up loss
I0908 21:15:40.412329  2074 softmax_loss_layer.cpp:40] Weight_Loss file is not provided. Assign all one to it.
I0908 21:15:40.412338  2074 net.cpp:103] Top shape: 1 1 1 1 (1)
I0908 21:15:40.412343  2074 net.cpp:109]     with loss weight 1
I0908 21:15:40.412364  2074 layer_factory.hpp:78] Creating layer accuracy
I0908 21:15:40.412371  2074 net.cpp:67] Creating Layer accuracy
I0908 21:15:40.412376  2074 net.cpp:394] accuracy <- fc8_food17_fc8_food17_0_split_1
I0908 21:15:40.412382  2074 net.cpp:394] accuracy <- label_shrink_label_shrink_0_split_1
I0908 21:15:40.412391  2074 net.cpp:356] accuracy -> accuracy
I0908 21:15:40.412400  2074 net.cpp:96] Setting up accuracy
I0908 21:15:40.412410  2074 net.cpp:103] Top shape: 1 1 1 3 (3)
I0908 21:15:40.412416  2074 net.cpp:172] accuracy does not need backward computation.
I0908 21:15:40.412421  2074 net.cpp:170] loss needs backward computation.
I0908 21:15:40.412427  2074 net.cpp:172] label_shrink_label_shrink_0_split does not need backward computation.
I0908 21:15:40.412433  2074 net.cpp:172] label_shrink does not need backward computation.
I0908 21:15:40.412438  2074 net.cpp:170] fc8_food17_fc8_food17_0_split needs backward computation.
…
