…
I0907 20:01:52.164878  4963 solver.cpp:58] Creating training net from train_net file: food17/config/food17/train_train.prototxt
I0907 20:01:52.165292  4963 net.cpp:39] Initializing net from parameters: 
name: "food17"
layers {
  top: "data"
  top: "label"
  name: "data"
  type: IMAGE_SEG_DATA
  image_data_param {
    source: "food17/list/train.txt"
    batch_size: 1
    shuffle: true
    root_folder: "/home/khanhngan/tuan.khai/DeepLab-Context/food_data"
    label_type: PIXEL
  }
  include {
    phase: TRAIN
  }
  transform_param {
    mirror: true
    crop_size: 321
    mean_value: 104.008
    mean_value: 116.669
    mean_value: 122.675
  }
}
layers {
  bottom: "data"
  top: "conv1_1"
  name: "conv1_1"
  type: CONVOLUTION
  blobs_lr: 1
  blobs_lr: 2
  weight_decay: 1
  weight_decay: 0
  convolution_param {
    num_output: 64
    pad: 1
    kernel_size: 3
  }
}
layers {
  bottom: "conv1_1"
  top: "conv1_1"
  name: "relu1_1"
  type: RELU
}
layers {
  bottom: "conv1_1"
  top: "conv1_2"
  name: "conv1_2"
  type: CONVOLUTION
  blobs_lr: 1
  blobs_lr: 2
  weight_decay: 1
  weight_decay: 0
  convolution_param {
    num_output: 64
    pad: 1
    kernel_size: 3
  }
}
layers {
  bottom: "conv1_2"
  top: "conv1_2"
  name: "relu1_2"
  type: RELU
}
layers {
  bottom: "conv1_2"
  top: "pool1"
  name: "pool1"
  type: POOLING
  pooling_param {
    pool: MAX
    kernel_size: 3
    stride: 2
    pad: 1
  }
}
layers {
  bottom: "pool1"
  top: "conv2_1"
  name: "conv2_1"
  type: CONVOLUTION
  blobs_lr: 1
  blobs_lr: 2
  weight_decay: 1
  weight_decay: 0
  convolution_param {
    num_output: 128
    pad: 1
    kernel_size: 3
  }
}
layers {
  bottom: "conv2_1"
  top: "conv2_1"
  name: "relu2_1"
  type: RELU
}
layers {
  bottom: "conv2_1"
  top: "conv2_2"
  name: "conv2_2"
  type: CONVOLUTION
  blobs_lr: 1
  blobs_lr: 2
  weight_decay: 1
  weight_decay: 0
  convolution_param {
    num_output: 128
    pad: 1
    kernel_size: 3
  }
}
layers {
  bottom: "conv2_2"
  top: "conv2_2"
  name: "relu2_2"
  type: RELU
}
layers {
  bottom: "conv2_2"
  top: "pool2"
  name: "pool2"
  type: POOLING
  pooling_param {
    pool: MAX
    kernel_size: 3
    stride: 2
    pad: 1
  }
}
layers {
  bottom: "pool2"
  top: "conv3_1"
  name: "conv3_1"
  type: CONVOLUTION
  blobs_lr: 1
  blobs_lr: 2
  weight_decay: 1
  weight_decay: 0
  convolution_param {
    num_output: 256
    pad: 1
    kernel_size: 3
  }
}
layers {
  bottom: "conv3_1"
  top: "conv3_1"
  name: "relu3_1"
  type: RELU
}
layers {
  bottom: "conv3_1"
  top: "conv3_2"
  name: "conv3_2"
  type: CONVOLUTION
  blobs_lr: 1
  blobs_lr: 2
  weight_decay: 1
  weight_decay: 0
  convolution_param {
    num_output: 256
    pad: 1
    kernel_size: 3
  }
}
layers {
  bottom: "conv3_2"
  top: "conv3_2"
  name: "relu3_2"
  type: RELU
}
layers {
  bottom: "conv3_2"
  top: "conv3_3"
  name: "conv3_3"
  type: CONVOLUTION
  blobs_lr: 1
  blobs_lr: 2
  weight_decay: 1
  weight_decay: 0
  convolution_param {
    num_output: 256
    pad: 1
    kernel_size: 3
  }
}
layers {
  bottom: "conv3_3"
  top: "conv3_3"
  name: "relu3_3"
  type: RELU
}
layers {
  bottom: "conv3_3"
  top: "pool3"
  name: "pool3"
  type: POOLING
  pooling_param {
    pool: MAX
    kernel_size: 3
    stride: 2
    pad: 1
  }
}
layers {
  bottom: "pool3"
  top: "conv4_1"
  name: "conv4_1"
  type: CONVOLUTION
  blobs_lr: 1
  blobs_lr: 2
  weight_decay: 1
  weight_decay: 0
  convolution_param {
    num_output: 512
    pad: 1
    kernel_size: 3
  }
}
layers {
  bottom: "conv4_1"
  top: "conv4_1"
  name: "relu4_1"
  type: RELU
}
layers {
  bottom: "conv4_1"
  top: "conv4_2"
  name: "conv4_2"
  type: CONVOLUTION
  blobs_lr: 1
  blobs_lr: 2
  weight_decay: 1
  weight_decay: 0
  convolution_param {
    num_output: 512
    pad: 1
    kernel_size: 3
  }
}
layers {
  bottom: "conv4_2"
  top: "conv4_2"
  name: "relu4_2"
  type: RELU
}
layers {
  bottom: "conv4_2"
  top: "conv4_3"
  name: "conv4_3"
  type: CONVOLUTION
  blobs_lr: 1
  blobs_lr: 2
  weight_decay: 1
  weight_decay: 0
  convolution_param {
    num_output: 512
    pad: 1
    kernel_size: 3
  }
}
layers {
  bottom: "conv4_3"
  top: "conv4_3"
  name: "relu4_3"
  type: RELU
}
layers {
  bottom: "conv4_3"
  top: "pool4"
  name: "pool4"
  type: POOLING
  pooling_param {
    pool: MAX
    kernel_size: 3
    stride: 1
    pad: 1
  }
}
layers {
  bottom: "pool4"
  top: "conv5_1"
  name: "conv5_1"
  type: CONVOLUTION
  blobs_lr: 1
  blobs_lr: 2
  weight_decay: 1
  weight_decay: 0
  convolution_param {
    num_output: 512
    pad: 2
    kernel_size: 3
    hole: 2
  }
}
layers {
  bottom: "conv5_1"
  top: "conv5_1"
  name: "relu5_1"
  type: RELU
}
layers {
  bottom: "conv5_1"
  top: "conv5_2"
  name: "conv5_2"
  type: CONVOLUTION
  blobs_lr: 1
  blobs_lr: 2
  weight_decay: 1
  weight_decay: 0
  convolution_param {
    num_output: 512
    pad: 2
    kernel_size: 3
    hole: 2
  }
}
layers {
  bottom: "conv5_2"
  top: "conv5_2"
  name: "relu5_2"
  type: RELU
}
layers {
  bottom: "conv5_2"
  top: "conv5_3"
  name: "conv5_3"
  type: CONVOLUTION
  blobs_lr: 1
  blobs_lr: 2
  weight_decay: 1
  weight_decay: 0
  convolution_param {
    num_output: 512
    pad: 2
    kernel_size: 3
    hole: 2
  }
}
layers {
  bottom: "conv5_3"
  top: "conv5_3"
  name: "relu5_3"
  type: RELU
}
layers {
  bottom: "conv5_3"
  top: "pool5"
  name: "pool5"
  type: POOLING
  pooling_param {
    pool: MAX
    kernel_size: 3
    stride: 1
    pad: 1
  }
}
layers {
  bottom: "pool5"
  top: "pool5a"
  name: "pool5a"
  type: POOLING
  pooling_param {
    pool: AVE
    kernel_size: 3
    stride: 1
    pad: 1
  }
}
layers {
  bottom: "pool5a"
  top: "fc6"
  name: "fc6"
  type: CONVOLUTION
  blobs_lr: 1
  blobs_lr: 2
  weight_decay: 1
  weight_decay: 0
  convolution_param {
    num_output: 1024
    pad: 12
    kernel_size: 3
    hole: 12
  }
}
layers {
  bottom: "fc6"
  top: "fc6"
  name: "relu6"
  type: RELU
}
layers {
  bottom: "fc6"
  top: "fc6"
  name: "drop6"
  type: DROPOUT
  dropout_param {
    dropout_ratio: 0.5
  }
}
layers {
  bottom: "fc6"
  top: "fc7"
  name: "fc7"
  type: CONVOLUTION
  blobs_lr: 1
  blobs_lr: 2
  weight_decay: 1
  weight_decay: 0
  convolution_param {
    num_output: 1024
    kernel_size: 1
  }
}
layers {
  bottom: "fc7"
  top: "fc7"
  name: "relu7"
  type: RELU
}
layers {
  bottom: "fc7"
  top: "fc7"
  name: "drop7"
  type: DROPOUT
  dropout_param {
    dropout_ratio: 0.5
  }
}
layers {
  bottom: "fc7"
  top: "fc8_food17"
  name: "fc8_food17"
  type: CONVOLUTION
  blobs_lr: 10
  blobs_lr: 20
  weight_decay: 1
  weight_decay: 0
  convolution_param {
    num_output: 18
    kernel_size: 1
    weight_filler {
      type: "gaussian"
      std: 0.01
    }
    bias_filler {
      type: "constant"
      value: 0
    }
  }
}
layers {
  bottom: "label"
  top: "label_shrink"
  name: "label_shrink"
  type: INTERP
  interp_param {
    shrink_factor: 8
    pad_beg: 0
    pad_end: 0
  }
}
layers {
  bottom: "fc8_food17"
  bottom: "label_shrink"
  name: "loss"
  type: SOFTMAX_LOSS
  include {
    phase: TRAIN
  }
  softmaxloss_param {
    ignore_label: 255
  }
}
layers {
  bottom: "fc8_food17"
  bottom: "label_shrink"
  top: "accuracy"
  name: "accuracy"
  type: SEG_ACCURACY
  seg_accuracy_param {
    ignore_label: 255
  }
}
state {
  phase: TRAIN
}
I0907 20:01:52.165609  4963 layer_factory.hpp:78] Creating layer data
I0907 20:01:52.165632  4963 net.cpp:67] Creating Layer data
I0907 20:01:52.165642  4963 net.cpp:356] data -> data
I0907 20:01:52.165657  4963 net.cpp:356] data -> label
I0907 20:01:52.165671  4963 net.cpp:356] data -> (automatic)
I0907 20:01:52.165681  4963 net.cpp:96] Setting up data
I0907 20:01:52.165688  4963 image_seg_data_layer.cpp:45] Opening file food17/list/train.txt
I0907 20:01:52.168774  4963 image_seg_data_layer.cpp:62] Shuffling data
I0907 20:01:52.169278  4963 image_seg_data_layer.cpp:67] A total of 2594 images.
I0907 20:01:52.170711  4963 image_seg_data_layer.cpp:113] output data size: 1,3,321,321
I0907 20:01:52.170718  4963 image_seg_data_layer.cpp:117] output label size: 1,1,321,321
I0907 20:01:52.170722  4963 image_seg_data_layer.cpp:121] output data_dim size: 1,1,1,2
I0907 20:01:52.170976  4963 net.cpp:103] Top shape: 1 3 321 321 (309123)
I0907 20:01:52.170989  4963 net.cpp:103] Top shape: 1 1 321 321 (103041)
I0907 20:01:52.170991  4963 net.cpp:103] Top shape: 1 1 1 2 (2)
I0907 20:01:52.170994  4963 layer_factory.hpp:78] Creating layer conv1_1
I0907 20:01:52.171007  4963 net.cpp:67] Creating Layer conv1_1
I0907 20:01:52.171013  4963 net.cpp:394] conv1_1 <- data
I0907 20:01:52.171027  4963 net.cpp:356] conv1_1 -> conv1_1
I0907 20:01:52.171037  4963 net.cpp:96] Setting up conv1_1
I0907 20:01:52.171191  4963 net.cpp:103] Top shape: 1 64 321 321 (6594624)
I0907 20:01:52.171208  4963 layer_factory.hpp:78] Creating layer relu1_1
I0907 20:01:52.171218  4963 net.cpp:67] Creating Layer relu1_1
I0907 20:01:52.171224  4963 net.cpp:394] relu1_1 <- conv1_1
I0907 20:01:52.171231  4963 net.cpp:345] relu1_1 -> conv1_1 (in-place)
I0907 20:01:52.171239  4963 net.cpp:96] Setting up relu1_1
I0907 20:01:52.171248  4963 net.cpp:103] Top shape: 1 64 321 321 (6594624)
I0907 20:01:52.171254  4963 layer_factory.hpp:78] Creating layer conv1_2
I0907 20:01:52.171262  4963 net.cpp:67] Creating Layer conv1_2
I0907 20:01:52.171267  4963 net.cpp:394] conv1_2 <- conv1_1
I0907 20:01:52.171273  4963 net.cpp:356] conv1_2 -> conv1_2
I0907 20:01:52.171283  4963 net.cpp:96] Setting up conv1_2
I0907 20:01:52.171464  4963 net.cpp:103] Top shape: 1 64 321 321 (6594624)
I0907 20:01:52.171474  4963 layer_factory.hpp:78] Creating layer relu1_2
I0907 20:01:52.171483  4963 net.cpp:67] Creating Layer relu1_2
I0907 20:01:52.171488  4963 net.cpp:394] relu1_2 <- conv1_2
I0907 20:01:52.171494  4963 net.cpp:345] relu1_2 -> conv1_2 (in-place)
I0907 20:01:52.171501  4963 net.cpp:96] Setting up relu1_2
I0907 20:01:52.171507  4963 net.cpp:103] Top shape: 1 64 321 321 (6594624)
I0907 20:01:52.171512  4963 layer_factory.hpp:78] Creating layer pool1
I0907 20:01:52.171520  4963 net.cpp:67] Creating Layer pool1
I0907 20:01:52.171525  4963 net.cpp:394] pool1 <- conv1_2
I0907 20:01:52.171532  4963 net.cpp:356] pool1 -> pool1
I0907 20:01:52.171540  4963 net.cpp:96] Setting up pool1
I0907 20:01:52.171555  4963 net.cpp:103] Top shape: 1 64 161 161 (1658944)
I0907 20:01:52.171568  4963 layer_factory.hpp:78] Creating layer conv2_1
I0907 20:01:52.171576  4963 net.cpp:67] Creating Layer conv2_1
I0907 20:01:52.171581  4963 net.cpp:394] conv2_1 <- pool1
I0907 20:01:52.171588  4963 net.cpp:356] conv2_1 -> conv2_1
I0907 20:01:52.171597  4963 net.cpp:96] Setting up conv2_1
I0907 20:01:52.171746  4963 net.cpp:103] Top shape: 1 128 161 161 (3317888)
I0907 20:01:52.171756  4963 layer_factory.hpp:78] Creating layer relu2_1
I0907 20:01:52.171766  4963 net.cpp:67] Creating Layer relu2_1
I0907 20:01:52.171772  4963 net.cpp:394] relu2_1 <- conv2_1
I0907 20:01:52.171778  4963 net.cpp:345] relu2_1 -> conv2_1 (in-place)
I0907 20:01:52.171787  4963 net.cpp:96] Setting up relu2_1
I0907 20:01:52.171792  4963 net.cpp:103] Top shape: 1 128 161 161 (3317888)
I0907 20:01:52.171797  4963 layer_factory.hpp:78] Creating layer conv2_2
I0907 20:01:52.171804  4963 net.cpp:67] Creating Layer conv2_2
I0907 20:01:52.171809  4963 net.cpp:394] conv2_2 <- conv2_1
I0907 20:01:52.171818  4963 net.cpp:356] conv2_2 -> conv2_2
I0907 20:01:52.171825  4963 net.cpp:96] Setting up conv2_2
I0907 20:01:52.172071  4963 net.cpp:103] Top shape: 1 128 161 161 (3317888)
I0907 20:01:52.172080  4963 layer_factory.hpp:78] Creating layer relu2_2
I0907 20:01:52.172086  4963 net.cpp:67] Creating Layer relu2_2
I0907 20:01:52.172091  4963 net.cpp:394] relu2_2 <- conv2_2
I0907 20:01:52.172097  4963 net.cpp:345] relu2_2 -> conv2_2 (in-place)
I0907 20:01:52.172104  4963 net.cpp:96] Setting up relu2_2
I0907 20:01:52.172111  4963 net.cpp:103] Top shape: 1 128 161 161 (3317888)
I0907 20:01:52.172116  4963 layer_factory.hpp:78] Creating layer pool2
I0907 20:01:52.172142  4963 net.cpp:67] Creating Layer pool2
I0907 20:01:52.172148  4963 net.cpp:394] pool2 <- conv2_2
I0907 20:01:52.172155  4963 net.cpp:356] pool2 -> pool2
I0907 20:01:52.172165  4963 net.cpp:96] Setting up pool2
I0907 20:01:52.172173  4963 net.cpp:103] Top shape: 1 128 81 81 (839808)
I0907 20:01:52.172178  4963 layer_factory.hpp:78] Creating layer conv3_1
I0907 20:01:52.172185  4963 net.cpp:67] Creating Layer conv3_1
I0907 20:01:52.172191  4963 net.cpp:394] conv3_1 <- pool2
I0907 20:01:52.172202  4963 net.cpp:356] conv3_1 -> conv3_1
I0907 20:01:52.172211  4963 net.cpp:96] Setting up conv3_1
I0907 20:01:52.172598  4963 net.cpp:103] Top shape: 1 256 81 81 (1679616)
I0907 20:01:52.172610  4963 layer_factory.hpp:78] Creating layer relu3_1
I0907 20:01:52.172618  4963 net.cpp:67] Creating Layer relu3_1
I0907 20:01:52.172623  4963 net.cpp:394] relu3_1 <- conv3_1
I0907 20:01:52.172631  4963 net.cpp:345] relu3_1 -> conv3_1 (in-place)
I0907 20:01:52.172638  4963 net.cpp:96] Setting up relu3_1
I0907 20:01:52.172643  4963 net.cpp:103] Top shape: 1 256 81 81 (1679616)
I0907 20:01:52.172648  4963 layer_factory.hpp:78] Creating layer conv3_2
I0907 20:01:52.172655  4963 net.cpp:67] Creating Layer conv3_2
I0907 20:01:52.172660  4963 net.cpp:394] conv3_2 <- conv3_1
I0907 20:01:52.172668  4963 net.cpp:356] conv3_2 -> conv3_2
I0907 20:01:52.172675  4963 net.cpp:96] Setting up conv3_2
I0907 20:01:52.173480  4963 net.cpp:103] Top shape: 1 256 81 81 (1679616)
I0907 20:01:52.173496  4963 layer_factory.hpp:78] Creating layer relu3_2
I0907 20:01:52.173504  4963 net.cpp:67] Creating Layer relu3_2
I0907 20:01:52.173509  4963 net.cpp:394] relu3_2 <- conv3_2
I0907 20:01:52.173516  4963 net.cpp:345] relu3_2 -> conv3_2 (in-place)
I0907 20:01:52.173523  4963 net.cpp:96] Setting up relu3_2
I0907 20:01:52.173528  4963 net.cpp:103] Top shape: 1 256 81 81 (1679616)
I0907 20:01:52.173533  4963 layer_factory.hpp:78] Creating layer conv3_3
I0907 20:01:52.173542  4963 net.cpp:67] Creating Layer conv3_3
I0907 20:01:52.173547  4963 net.cpp:394] conv3_3 <- conv3_2
I0907 20:01:52.173554  4963 net.cpp:356] conv3_3 -> conv3_3
I0907 20:01:52.173563  4963 net.cpp:96] Setting up conv3_3
I0907 20:01:52.174393  4963 net.cpp:103] Top shape: 1 256 81 81 (1679616)
I0907 20:01:52.174412  4963 layer_factory.hpp:78] Creating layer relu3_3
I0907 20:01:52.174423  4963 net.cpp:67] Creating Layer relu3_3
I0907 20:01:52.174428  4963 net.cpp:394] relu3_3 <- conv3_3
I0907 20:01:52.174435  4963 net.cpp:345] relu3_3 -> conv3_3 (in-place)
I0907 20:01:52.174443  4963 net.cpp:96] Setting up relu3_3
I0907 20:01:52.174448  4963 net.cpp:103] Top shape: 1 256 81 81 (1679616)
I0907 20:01:52.174453  4963 layer_factory.hpp:78] Creating layer pool3
I0907 20:01:52.174461  4963 net.cpp:67] Creating Layer pool3
I0907 20:01:52.174466  4963 net.cpp:394] pool3 <- conv3_3
I0907 20:01:52.174476  4963 net.cpp:356] pool3 -> pool3
I0907 20:01:52.174485  4963 net.cpp:96] Setting up pool3
I0907 20:01:52.174492  4963 net.cpp:103] Top shape: 1 256 41 41 (430336)
I0907 20:01:52.174499  4963 layer_factory.hpp:78] Creating layer conv4_1
I0907 20:01:52.174506  4963 net.cpp:67] Creating Layer conv4_1
I0907 20:01:52.174511  4963 net.cpp:394] conv4_1 <- pool3
I0907 20:01:52.174518  4963 net.cpp:356] conv4_1 -> conv4_1
I0907 20:01:52.174526  4963 net.cpp:96] Setting up conv4_1
I0907 20:01:52.175698  4963 net.cpp:103] Top shape: 1 512 41 41 (860672)
I0907 20:01:52.175719  4963 layer_factory.hpp:78] Creating layer relu4_1
I0907 20:01:52.175727  4963 net.cpp:67] Creating Layer relu4_1
I0907 20:01:52.175732  4963 net.cpp:394] relu4_1 <- conv4_1
I0907 20:01:52.175740  4963 net.cpp:345] relu4_1 -> conv4_1 (in-place)
I0907 20:01:52.175748  4963 net.cpp:96] Setting up relu4_1
I0907 20:01:52.175753  4963 net.cpp:103] Top shape: 1 512 41 41 (860672)
I0907 20:01:52.175758  4963 layer_factory.hpp:78] Creating layer conv4_2
I0907 20:01:52.175765  4963 net.cpp:67] Creating Layer conv4_2
I0907 20:01:52.175770  4963 net.cpp:394] conv4_2 <- conv4_1
I0907 20:01:52.175776  4963 net.cpp:356] conv4_2 -> conv4_2
I0907 20:01:52.175803  4963 net.cpp:96] Setting up conv4_2
I0907 20:01:52.178373  4963 net.cpp:103] Top shape: 1 512 41 41 (860672)
I0907 20:01:52.178431  4963 layer_factory.hpp:78] Creating layer relu4_2
I0907 20:01:52.178445  4963 net.cpp:67] Creating Layer relu4_2
I0907 20:01:52.178452  4963 net.cpp:394] relu4_2 <- conv4_2
I0907 20:01:52.178463  4963 net.cpp:345] relu4_2 -> conv4_2 (in-place)
I0907 20:01:52.178473  4963 net.cpp:96] Setting up relu4_2
I0907 20:01:52.178478  4963 net.cpp:103] Top shape: 1 512 41 41 (860672)
I0907 20:01:52.178481  4963 layer_factory.hpp:78] Creating layer conv4_3
I0907 20:01:52.178489  4963 net.cpp:67] Creating Layer conv4_3
I0907 20:01:52.178493  4963 net.cpp:394] conv4_3 <- conv4_2
I0907 20:01:52.178500  4963 net.cpp:356] conv4_3 -> conv4_3
I0907 20:01:52.178508  4963 net.cpp:96] Setting up conv4_3
I0907 20:01:52.180508  4963 net.cpp:103] Top shape: 1 512 41 41 (860672)
I0907 20:01:52.180534  4963 layer_factory.hpp:78] Creating layer relu4_3
I0907 20:01:52.180546  4963 net.cpp:67] Creating Layer relu4_3
I0907 20:01:52.180552  4963 net.cpp:394] relu4_3 <- conv4_3
I0907 20:01:52.180559  4963 net.cpp:345] relu4_3 -> conv4_3 (in-place)
I0907 20:01:52.180567  4963 net.cpp:96] Setting up relu4_3
I0907 20:01:52.180573  4963 net.cpp:103] Top shape: 1 512 41 41 (860672)
I0907 20:01:52.180577  4963 layer_factory.hpp:78] Creating layer pool4
I0907 20:01:52.180585  4963 net.cpp:67] Creating Layer pool4
I0907 20:01:52.180590  4963 net.cpp:394] pool4 <- conv4_3
I0907 20:01:52.180598  4963 net.cpp:356] pool4 -> pool4
I0907 20:01:52.180649  4963 net.cpp:96] Setting up pool4
I0907 20:01:52.180660  4963 net.cpp:103] Top shape: 1 512 41 41 (860672)
I0907 20:01:52.180665  4963 layer_factory.hpp:78] Creating layer conv5_1
I0907 20:01:52.180673  4963 net.cpp:67] Creating Layer conv5_1
I0907 20:01:52.180680  4963 net.cpp:394] conv5_1 <- pool4
I0907 20:01:52.180687  4963 net.cpp:356] conv5_1 -> conv5_1
I0907 20:01:52.180696  4963 net.cpp:96] Setting up conv5_1
I0907 20:01:52.182382  4963 net.cpp:103] Top shape: 1 512 41 41 (860672)
I0907 20:01:52.182407  4963 layer_factory.hpp:78] Creating layer relu5_1
I0907 20:01:52.182417  4963 net.cpp:67] Creating Layer relu5_1
I0907 20:01:52.182423  4963 net.cpp:394] relu5_1 <- conv5_1
I0907 20:01:52.182430  4963 net.cpp:345] relu5_1 -> conv5_1 (in-place)
I0907 20:01:52.182438  4963 net.cpp:96] Setting up relu5_1
I0907 20:01:52.182443  4963 net.cpp:103] Top shape: 1 512 41 41 (860672)
I0907 20:01:52.182449  4963 layer_factory.hpp:78] Creating layer conv5_2
I0907 20:01:52.182456  4963 net.cpp:67] Creating Layer conv5_2
I0907 20:01:52.182461  4963 net.cpp:394] conv5_2 <- conv5_1
I0907 20:01:52.182469  4963 net.cpp:356] conv5_2 -> conv5_2
I0907 20:01:52.182478  4963 net.cpp:96] Setting up conv5_2
I0907 20:01:52.184343  4963 net.cpp:103] Top shape: 1 512 41 41 (860672)
I0907 20:01:52.184368  4963 layer_factory.hpp:78] Creating layer relu5_2
I0907 20:01:52.184377  4963 net.cpp:67] Creating Layer relu5_2
I0907 20:01:52.184383  4963 net.cpp:394] relu5_2 <- conv5_2
I0907 20:01:52.184391  4963 net.cpp:345] relu5_2 -> conv5_2 (in-place)
I0907 20:01:52.184398  4963 net.cpp:96] Setting up relu5_2
I0907 20:01:52.184403  4963 net.cpp:103] Top shape: 1 512 41 41 (860672)
I0907 20:01:52.184408  4963 layer_factory.hpp:78] Creating layer conv5_3
I0907 20:01:52.184414  4963 net.cpp:67] Creating Layer conv5_3
I0907 20:01:52.184420  4963 net.cpp:394] conv5_3 <- conv5_2
I0907 20:01:52.184429  4963 net.cpp:356] conv5_3 -> conv5_3
I0907 20:01:52.184437  4963 net.cpp:96] Setting up conv5_3
I0907 20:01:52.186029  4963 net.cpp:103] Top shape: 1 512 41 41 (860672)
I0907 20:01:52.186064  4963 layer_factory.hpp:78] Creating layer relu5_3
I0907 20:01:52.186074  4963 net.cpp:67] Creating Layer relu5_3
I0907 20:01:52.186076  4963 net.cpp:394] relu5_3 <- conv5_3
I0907 20:01:52.186081  4963 net.cpp:345] relu5_3 -> conv5_3 (in-place)
I0907 20:01:52.186089  4963 net.cpp:96] Setting up relu5_3
I0907 20:01:52.186092  4963 net.cpp:103] Top shape: 1 512 41 41 (860672)
I0907 20:01:52.186123  4963 layer_factory.hpp:78] Creating layer pool5
I0907 20:01:52.186131  4963 net.cpp:67] Creating Layer pool5
I0907 20:01:52.186134  4963 net.cpp:394] pool5 <- conv5_3
I0907 20:01:52.186141  4963 net.cpp:356] pool5 -> pool5
I0907 20:01:52.186151  4963 net.cpp:96] Setting up pool5
I0907 20:01:52.186159  4963 net.cpp:103] Top shape: 1 512 41 41 (860672)
I0907 20:01:52.186164  4963 layer_factory.hpp:78] Creating layer pool5a
I0907 20:01:52.186182  4963 net.cpp:67] Creating Layer pool5a
I0907 20:01:52.186187  4963 net.cpp:394] pool5a <- pool5
I0907 20:01:52.186193  4963 net.cpp:356] pool5a -> pool5a
I0907 20:01:52.186202  4963 net.cpp:96] Setting up pool5a
I0907 20:01:52.186208  4963 net.cpp:103] Top shape: 1 512 41 41 (860672)
I0907 20:01:52.186213  4963 layer_factory.hpp:78] Creating layer fc6
I0907 20:01:52.186220  4963 net.cpp:67] Creating Layer fc6
I0907 20:01:52.186226  4963 net.cpp:394] fc6 <- pool5a
I0907 20:01:52.186233  4963 net.cpp:356] fc6 -> fc6
I0907 20:01:52.186241  4963 net.cpp:96] Setting up fc6
I0907 20:01:52.189074  4963 net.cpp:103] Top shape: 1 1024 41 41 (1721344)
I0907 20:01:52.189097  4963 layer_factory.hpp:78] Creating layer relu6
I0907 20:01:52.189108  4963 net.cpp:67] Creating Layer relu6
I0907 20:01:52.189113  4963 net.cpp:394] relu6 <- fc6
I0907 20:01:52.189121  4963 net.cpp:345] relu6 -> fc6 (in-place)
I0907 20:01:52.189128  4963 net.cpp:96] Setting up relu6
I0907 20:01:52.189133  4963 net.cpp:103] Top shape: 1 1024 41 41 (1721344)
I0907 20:01:52.189138  4963 layer_factory.hpp:78] Creating layer drop6
I0907 20:01:52.189146  4963 net.cpp:67] Creating Layer drop6
I0907 20:01:52.189149  4963 net.cpp:394] drop6 <- fc6
I0907 20:01:52.189157  4963 net.cpp:345] drop6 -> fc6 (in-place)
I0907 20:01:52.189163  4963 net.cpp:96] Setting up drop6
I0907 20:01:52.189169  4963 net.cpp:103] Top shape: 1 1024 41 41 (1721344)
I0907 20:01:52.189174  4963 layer_factory.hpp:78] Creating layer fc7
I0907 20:01:52.189182  4963 net.cpp:67] Creating Layer fc7
I0907 20:01:52.189187  4963 net.cpp:394] fc7 <- fc6
I0907 20:01:52.189194  4963 net.cpp:356] fc7 -> fc7
I0907 20:01:52.189203  4963 net.cpp:96] Setting up fc7
I0907 20:01:52.190157  4963 net.cpp:103] Top shape: 1 1024 41 41 (1721344)
I0907 20:01:52.190179  4963 layer_factory.hpp:78] Creating layer relu7
I0907 20:01:52.190188  4963 net.cpp:67] Creating Layer relu7
I0907 20:01:52.190193  4963 net.cpp:394] relu7 <- fc7
I0907 20:01:52.190201  4963 net.cpp:345] relu7 -> fc7 (in-place)
I0907 20:01:52.190208  4963 net.cpp:96] Setting up relu7
I0907 20:01:52.190212  4963 net.cpp:103] Top shape: 1 1024 41 41 (1721344)
I0907 20:01:52.190217  4963 layer_factory.hpp:78] Creating layer drop7
I0907 20:01:52.190224  4963 net.cpp:67] Creating Layer drop7
I0907 20:01:52.190229  4963 net.cpp:394] drop7 <- fc7
I0907 20:01:52.190237  4963 net.cpp:345] drop7 -> fc7 (in-place)
I0907 20:01:52.190244  4963 net.cpp:96] Setting up drop7
I0907 20:01:52.190250  4963 net.cpp:103] Top shape: 1 1024 41 41 (1721344)
I0907 20:01:52.190256  4963 layer_factory.hpp:78] Creating layer fc8_food17
I0907 20:01:52.190263  4963 net.cpp:67] Creating Layer fc8_food17
I0907 20:01:52.190269  4963 net.cpp:394] fc8_food17 <- fc7
I0907 20:01:52.190279  4963 net.cpp:356] fc8_food17 -> fc8_food17
I0907 20:01:52.190286  4963 net.cpp:96] Setting up fc8_food17
I0907 20:01:52.190604  4963 net.cpp:103] Top shape: 1 18 41 41 (30258)
I0907 20:01:52.190613  4963 layer_factory.hpp:78] Creating layer fc8_food17_fc8_food17_0_split
I0907 20:01:52.190620  4963 net.cpp:67] Creating Layer fc8_food17_fc8_food17_0_split
I0907 20:01:52.190626  4963 net.cpp:394] fc8_food17_fc8_food17_0_split <- fc8_food17
I0907 20:01:52.190634  4963 net.cpp:356] fc8_food17_fc8_food17_0_split -> fc8_food17_fc8_food17_0_split_0
I0907 20:01:52.190644  4963 net.cpp:356] fc8_food17_fc8_food17_0_split -> fc8_food17_fc8_food17_0_split_1
I0907 20:01:52.190654  4963 net.cpp:96] Setting up fc8_food17_fc8_food17_0_split
I0907 20:01:52.190660  4963 net.cpp:103] Top shape: 1 18 41 41 (30258)
I0907 20:01:52.190665  4963 net.cpp:103] Top shape: 1 18 41 41 (30258)
I0907 20:01:52.190690  4963 layer_factory.hpp:78] Creating layer label_shrink
I0907 20:01:52.190706  4963 net.cpp:67] Creating Layer label_shrink
I0907 20:01:52.190712  4963 net.cpp:394] label_shrink <- label
I0907 20:01:52.190719  4963 net.cpp:356] label_shrink -> label_shrink
I0907 20:01:52.190727  4963 net.cpp:96] Setting up label_shrink
I0907 20:01:52.190734  4963 net.cpp:103] Top shape: 1 1 41 41 (1681)
I0907 20:01:52.190740  4963 layer_factory.hpp:78] Creating layer label_shrink_label_shrink_0_split
I0907 20:01:52.190747  4963 net.cpp:67] Creating Layer label_shrink_label_shrink_0_split
I0907 20:01:52.190752  4963 net.cpp:394] label_shrink_label_shrink_0_split <- label_shrink
I0907 20:01:52.190762  4963 net.cpp:356] label_shrink_label_shrink_0_split -> label_shrink_label_shrink_0_split_0
I0907 20:01:52.190770  4963 net.cpp:356] label_shrink_label_shrink_0_split -> label_shrink_label_shrink_0_split_1
I0907 20:01:52.190778  4963 net.cpp:96] Setting up label_shrink_label_shrink_0_split
I0907 20:01:52.190784  4963 net.cpp:103] Top shape: 1 1 41 41 (1681)
I0907 20:01:52.190790  4963 net.cpp:103] Top shape: 1 1 41 41 (1681)
I0907 20:01:52.190795  4963 layer_factory.hpp:78] Creating layer loss
I0907 20:01:52.190812  4963 net.cpp:67] Creating Layer loss
I0907 20:01:52.190817  4963 net.cpp:394] loss <- fc8_food17_fc8_food17_0_split_0
I0907 20:01:52.190824  4963 net.cpp:394] loss <- label_shrink_label_shrink_0_split_0
I0907 20:01:52.190834  4963 net.cpp:356] loss -> (automatic)
I0907 20:01:52.190841  4963 net.cpp:96] Setting up loss
I0907 20:01:52.190848  4963 softmax_loss_layer.cpp:40] Weight_Loss file is not provided. Assign all one to it.
I0907 20:01:52.190855  4963 net.cpp:103] Top shape: 1 1 1 1 (1)
I0907 20:01:52.190860  4963 net.cpp:109]     with loss weight 1
I0907 20:01:52.190888  4963 layer_factory.hpp:78] Creating layer accuracy
I0907 20:01:52.190896  4963 net.cpp:67] Creating Layer accuracy
I0907 20:01:52.190901  4963 net.cpp:394] accuracy <- fc8_food17_fc8_food17_0_split_1
I0907 20:01:52.190907  4963 net.cpp:394] accuracy <- label_shrink_label_shrink_0_split_1
I0907 20:01:52.190915  4963 net.cpp:356] accuracy -> accuracy
I0907 20:01:52.190922  4963 net.cpp:96] Setting up accuracy
I0907 20:01:52.190932  4963 net.cpp:103] Top shape: 1 1 1 3 (3)
I0907 20:01:52.190938  4963 net.cpp:172] accuracy does not need backward computation.
I0907 20:01:52.190943  4963 net.cpp:170] loss needs backward computation.
I0907 20:01:52.190948  4963 net.cpp:172] label_shrink_label_shrink_0_split does not need backward computation.
I0907 20:01:52.190954  4963 net.cpp:172] label_shrink does not need backward computation.
I0907 20:01:52.190959  4963 net.cpp:170] fc8_food17_fc8_food17_0_split needs backward computation.
…
