…
I0908 19:35:38.865954  4937 solver.cpp:58] Creating training net from train_net file: food17/config/food17/train_train.prototxt
I0908 19:35:38.866384  4937 net.cpp:39] Initializing net from parameters: 
name: "food17"
layers {
  top: "data"
  top: "label"
  name: "data"
  type: IMAGE_SEG_DATA
  image_data_param {
    source: "food17/list/train.txt"
    batch_size: 1
    shuffle: true
    root_folder: "/home/khanhngan/tuan.khai/DeepLab-Context/food_data"
    label_type: PIXEL
  }
  include {
    phase: TRAIN
  }
  transform_param {
    mirror: true
    crop_size: 321
    mean_value: 104.008
    mean_value: 116.669
    mean_value: 122.675
  }
}
layers {
  bottom: "data"
  top: "conv1_1"
  name: "conv1_1"
  type: CONVOLUTION
  blobs_lr: 1
  blobs_lr: 2
  weight_decay: 1
  weight_decay: 0
  convolution_param {
    num_output: 64
    pad: 1
    kernel_size: 3
  }
}
layers {
  bottom: "conv1_1"
  top: "conv1_1"
  name: "relu1_1"
  type: RELU
}
layers {
  bottom: "conv1_1"
  top: "conv1_2"
  name: "conv1_2"
  type: CONVOLUTION
  blobs_lr: 1
  blobs_lr: 2
  weight_decay: 1
  weight_decay: 0
  convolution_param {
    num_output: 64
    pad: 1
    kernel_size: 3
  }
}
layers {
  bottom: "conv1_2"
  top: "conv1_2"
  name: "relu1_2"
  type: RELU
}
layers {
  bottom: "conv1_2"
  top: "pool1"
  name: "pool1"
  type: POOLING
  pooling_param {
    pool: MAX
    kernel_size: 3
    stride: 2
    pad: 1
  }
}
layers {
  bottom: "pool1"
  top: "conv2_1"
  name: "conv2_1"
  type: CONVOLUTION
  blobs_lr: 1
  blobs_lr: 2
  weight_decay: 1
  weight_decay: 0
  convolution_param {
    num_output: 128
    pad: 1
    kernel_size: 3
  }
}
layers {
  bottom: "conv2_1"
  top: "conv2_1"
  name: "relu2_1"
  type: RELU
}
layers {
  bottom: "conv2_1"
  top: "conv2_2"
  name: "conv2_2"
  type: CONVOLUTION
  blobs_lr: 1
  blobs_lr: 2
  weight_decay: 1
  weight_decay: 0
  convolution_param {
    num_output: 128
    pad: 1
    kernel_size: 3
  }
}
layers {
  bottom: "conv2_2"
  top: "conv2_2"
  name: "relu2_2"
  type: RELU
}
layers {
  bottom: "conv2_2"
  top: "pool2"
  name: "pool2"
  type: POOLING
  pooling_param {
    pool: MAX
    kernel_size: 3
    stride: 2
    pad: 1
  }
}
layers {
  bottom: "pool2"
  top: "conv3_1"
  name: "conv3_1"
  type: CONVOLUTION
  blobs_lr: 1
  blobs_lr: 2
  weight_decay: 1
  weight_decay: 0
  convolution_param {
    num_output: 256
    pad: 1
    kernel_size: 3
  }
}
layers {
  bottom: "conv3_1"
  top: "conv3_1"
  name: "relu3_1"
  type: RELU
}
layers {
  bottom: "conv3_1"
  top: "conv3_2"
  name: "conv3_2"
  type: CONVOLUTION
  blobs_lr: 1
  blobs_lr: 2
  weight_decay: 1
  weight_decay: 0
  convolution_param {
    num_output: 256
    pad: 1
    kernel_size: 3
  }
}
layers {
  bottom: "conv3_2"
  top: "conv3_2"
  name: "relu3_2"
  type: RELU
}
layers {
  bottom: "conv3_2"
  top: "conv3_3"
  name: "conv3_3"
  type: CONVOLUTION
  blobs_lr: 1
  blobs_lr: 2
  weight_decay: 1
  weight_decay: 0
  convolution_param {
    num_output: 256
    pad: 1
    kernel_size: 3
  }
}
layers {
  bottom: "conv3_3"
  top: "conv3_3"
  name: "relu3_3"
  type: RELU
}
layers {
  bottom: "conv3_3"
  top: "pool3"
  name: "pool3"
  type: POOLING
  pooling_param {
    pool: MAX
    kernel_size: 3
    stride: 2
    pad: 1
  }
}
layers {
  bottom: "pool3"
  top: "conv4_1"
  name: "conv4_1"
  type: CONVOLUTION
  blobs_lr: 1
  blobs_lr: 2
  weight_decay: 1
  weight_decay: 0
  convolution_param {
    num_output: 512
    pad: 1
    kernel_size: 3
  }
}
layers {
  bottom: "conv4_1"
  top: "conv4_1"
  name: "relu4_1"
  type: RELU
}
layers {
  bottom: "conv4_1"
  top: "conv4_2"
  name: "conv4_2"
  type: CONVOLUTION
  blobs_lr: 1
  blobs_lr: 2
  weight_decay: 1
  weight_decay: 0
  convolution_param {
    num_output: 512
    pad: 1
    kernel_size: 3
  }
}
layers {
  bottom: "conv4_2"
  top: "conv4_2"
  name: "relu4_2"
  type: RELU
}
layers {
  bottom: "conv4_2"
  top: "conv4_3"
  name: "conv4_3"
  type: CONVOLUTION
  blobs_lr: 1
  blobs_lr: 2
  weight_decay: 1
  weight_decay: 0
  convolution_param {
    num_output: 512
    pad: 1
    kernel_size: 3
  }
}
layers {
  bottom: "conv4_3"
  top: "conv4_3"
  name: "relu4_3"
  type: RELU
}
layers {
  bottom: "conv4_3"
  top: "pool4"
  name: "pool4"
  type: POOLING
  pooling_param {
    pool: MAX
    kernel_size: 3
    stride: 1
    pad: 1
  }
}
layers {
  bottom: "pool4"
  top: "conv5_1"
  name: "conv5_1"
  type: CONVOLUTION
  blobs_lr: 1
  blobs_lr: 2
  weight_decay: 1
  weight_decay: 0
  convolution_param {
    num_output: 512
    pad: 2
    kernel_size: 3
    hole: 2
  }
}
layers {
  bottom: "conv5_1"
  top: "conv5_1"
  name: "relu5_1"
  type: RELU
}
layers {
  bottom: "conv5_1"
  top: "conv5_2"
  name: "conv5_2"
  type: CONVOLUTION
  blobs_lr: 1
  blobs_lr: 2
  weight_decay: 1
  weight_decay: 0
  convolution_param {
    num_output: 512
    pad: 2
    kernel_size: 3
    hole: 2
  }
}
layers {
  bottom: "conv5_2"
  top: "conv5_2"
  name: "relu5_2"
  type: RELU
}
layers {
  bottom: "conv5_2"
  top: "conv5_3"
  name: "conv5_3"
  type: CONVOLUTION
  blobs_lr: 1
  blobs_lr: 2
  weight_decay: 1
  weight_decay: 0
  convolution_param {
    num_output: 512
    pad: 2
    kernel_size: 3
    hole: 2
  }
}
layers {
  bottom: "conv5_3"
  top: "conv5_3"
  name: "relu5_3"
  type: RELU
}
layers {
  bottom: "conv5_3"
  top: "pool5"
  name: "pool5"
  type: POOLING
  pooling_param {
    pool: MAX
    kernel_size: 3
    stride: 1
    pad: 1
  }
}
layers {
  bottom: "pool5"
  top: "pool5a"
  name: "pool5a"
  type: POOLING
  pooling_param {
    pool: AVE
    kernel_size: 3
    stride: 1
    pad: 1
  }
}
layers {
  bottom: "pool5a"
  top: "fc6"
  name: "fc6"
  type: CONVOLUTION
  blobs_lr: 1
  blobs_lr: 2
  weight_decay: 1
  weight_decay: 0
  convolution_param {
    num_output: 1024
    pad: 12
    kernel_size: 3
    hole: 12
  }
}
layers {
  bottom: "fc6"
  top: "fc6"
  name: "relu6"
  type: RELU
}
layers {
  bottom: "fc6"
  top: "fc6"
  name: "drop6"
  type: DROPOUT
  dropout_param {
    dropout_ratio: 0.5
  }
}
layers {
  bottom: "fc6"
  top: "fc7"
  name: "fc7"
  type: CONVOLUTION
  blobs_lr: 1
  blobs_lr: 2
  weight_decay: 1
  weight_decay: 0
  convolution_param {
    num_output: 1024
    kernel_size: 1
  }
}
layers {
  bottom: "fc7"
  top: "fc7"
  name: "relu7"
  type: RELU
}
layers {
  bottom: "fc7"
  top: "fc7"
  name: "drop7"
  type: DROPOUT
  dropout_param {
    dropout_ratio: 0.5
  }
}
layers {
  bottom: "fc7"
  top: "fc8_food17"
  name: "fc8_food17"
  type: CONVOLUTION
  blobs_lr: 10
  blobs_lr: 20
  weight_decay: 1
  weight_decay: 0
  convolution_param {
    num_output: 18
    kernel_size: 1
    weight_filler {
      type: "gaussian"
      std: 0.01
    }
    bias_filler {
      type: "constant"
      value: 0
    }
  }
}
layers {
  bottom: "label"
  top: "label_shrink"
  name: "label_shrink"
  type: INTERP
  interp_param {
    shrink_factor: 8
    pad_beg: 0
    pad_end: 0
  }
}
layers {
  bottom: "fc8_food17"
  bottom: "label_shrink"
  name: "loss"
  type: SOFTMAX_LOSS
  include {
    phase: TRAIN
  }
  softmaxloss_param {
    ignore_label: 255
  }
}
layers {
  bottom: "fc8_food17"
  bottom: "label_shrink"
  top: "accuracy"
  name: "accuracy"
  type: SEG_ACCURACY
  seg_accuracy_param {
    ignore_label: 255
  }
}
state {
  phase: TRAIN
}
I0908 19:35:38.866664  4937 layer_factory.hpp:78] Creating layer data
I0908 19:35:38.866681  4937 net.cpp:67] Creating Layer data
I0908 19:35:38.866685  4937 net.cpp:356] data -> data
I0908 19:35:38.866695  4937 net.cpp:356] data -> label
I0908 19:35:38.866704  4937 net.cpp:356] data -> (automatic)
I0908 19:35:38.866709  4937 net.cpp:96] Setting up data
I0908 19:35:38.866714  4937 image_seg_data_layer.cpp:45] Opening file food17/list/train.txt
I0908 19:35:38.869789  4937 image_seg_data_layer.cpp:62] Shuffling data
I0908 19:35:38.870286  4937 image_seg_data_layer.cpp:67] A total of 2594 images.
I0908 19:35:38.871762  4937 image_seg_data_layer.cpp:113] output data size: 1,3,321,321
I0908 19:35:38.871774  4937 image_seg_data_layer.cpp:117] output label size: 1,1,321,321
I0908 19:35:38.871778  4937 image_seg_data_layer.cpp:121] output data_dim size: 1,1,1,2
I0908 19:35:38.871927  4937 net.cpp:103] Top shape: 1 3 321 321 (309123)
I0908 19:35:38.871933  4937 net.cpp:103] Top shape: 1 1 321 321 (103041)
I0908 19:35:38.871937  4937 net.cpp:103] Top shape: 1 1 1 2 (2)
I0908 19:35:38.871939  4937 layer_factory.hpp:78] Creating layer conv1_1
I0908 19:35:38.871950  4937 net.cpp:67] Creating Layer conv1_1
I0908 19:35:38.871953  4937 net.cpp:394] conv1_1 <- data
I0908 19:35:38.871963  4937 net.cpp:356] conv1_1 -> conv1_1
I0908 19:35:38.871971  4937 net.cpp:96] Setting up conv1_1
I0908 19:35:38.872170  4937 net.cpp:103] Top shape: 1 64 321 321 (6594624)
I0908 19:35:38.872191  4937 layer_factory.hpp:78] Creating layer relu1_1
I0908 19:35:38.872200  4937 net.cpp:67] Creating Layer relu1_1
I0908 19:35:38.872203  4937 net.cpp:394] relu1_1 <- conv1_1
I0908 19:35:38.872208  4937 net.cpp:345] relu1_1 -> conv1_1 (in-place)
I0908 19:35:38.872215  4937 net.cpp:96] Setting up relu1_1
I0908 19:35:38.872220  4937 net.cpp:103] Top shape: 1 64 321 321 (6594624)
I0908 19:35:38.872225  4937 layer_factory.hpp:78] Creating layer conv1_2
I0908 19:35:38.872229  4937 net.cpp:67] Creating Layer conv1_2
I0908 19:35:38.872232  4937 net.cpp:394] conv1_2 <- conv1_1
I0908 19:35:38.872237  4937 net.cpp:356] conv1_2 -> conv1_2
I0908 19:35:38.872243  4937 net.cpp:96] Setting up conv1_2
I0908 19:35:38.872409  4937 net.cpp:103] Top shape: 1 64 321 321 (6594624)
I0908 19:35:38.872416  4937 layer_factory.hpp:78] Creating layer relu1_2
I0908 19:35:38.872422  4937 net.cpp:67] Creating Layer relu1_2
I0908 19:35:38.872426  4937 net.cpp:394] relu1_2 <- conv1_2
I0908 19:35:38.872431  4937 net.cpp:345] relu1_2 -> conv1_2 (in-place)
I0908 19:35:38.872436  4937 net.cpp:96] Setting up relu1_2
I0908 19:35:38.872439  4937 net.cpp:103] Top shape: 1 64 321 321 (6594624)
I0908 19:35:38.872442  4937 layer_factory.hpp:78] Creating layer pool1
I0908 19:35:38.872447  4937 net.cpp:67] Creating Layer pool1
I0908 19:35:38.872450  4937 net.cpp:394] pool1 <- conv1_2
I0908 19:35:38.872455  4937 net.cpp:356] pool1 -> pool1
I0908 19:35:38.872459  4937 net.cpp:96] Setting up pool1
I0908 19:35:38.872469  4937 net.cpp:103] Top shape: 1 64 161 161 (1658944)
I0908 19:35:38.872479  4937 layer_factory.hpp:78] Creating layer conv2_1
I0908 19:35:38.872484  4937 net.cpp:67] Creating Layer conv2_1
I0908 19:35:38.872488  4937 net.cpp:394] conv2_1 <- pool1
I0908 19:35:38.872493  4937 net.cpp:356] conv2_1 -> conv2_1
I0908 19:35:38.872498  4937 net.cpp:96] Setting up conv2_1
I0908 19:35:38.872642  4937 net.cpp:103] Top shape: 1 128 161 161 (3317888)
I0908 19:35:38.872649  4937 layer_factory.hpp:78] Creating layer relu2_1
I0908 19:35:38.872654  4937 net.cpp:67] Creating Layer relu2_1
I0908 19:35:38.872658  4937 net.cpp:394] relu2_1 <- conv2_1
I0908 19:35:38.872663  4937 net.cpp:345] relu2_1 -> conv2_1 (in-place)
I0908 19:35:38.872666  4937 net.cpp:96] Setting up relu2_1
I0908 19:35:38.872669  4937 net.cpp:103] Top shape: 1 128 161 161 (3317888)
I0908 19:35:38.872673  4937 layer_factory.hpp:78] Creating layer conv2_2
I0908 19:35:38.872678  4937 net.cpp:67] Creating Layer conv2_2
I0908 19:35:38.872681  4937 net.cpp:394] conv2_2 <- conv2_1
I0908 19:35:38.872685  4937 net.cpp:356] conv2_2 -> conv2_2
I0908 19:35:38.872690  4937 net.cpp:96] Setting up conv2_2
I0908 19:35:38.872934  4937 net.cpp:103] Top shape: 1 128 161 161 (3317888)
I0908 19:35:38.872941  4937 layer_factory.hpp:78] Creating layer relu2_2
I0908 19:35:38.872946  4937 net.cpp:67] Creating Layer relu2_2
I0908 19:35:38.872949  4937 net.cpp:394] relu2_2 <- conv2_2
I0908 19:35:38.872953  4937 net.cpp:345] relu2_2 -> conv2_2 (in-place)
I0908 19:35:38.872958  4937 net.cpp:96] Setting up relu2_2
I0908 19:35:38.872961  4937 net.cpp:103] Top shape: 1 128 161 161 (3317888)
I0908 19:35:38.872964  4937 layer_factory.hpp:78] Creating layer pool2
I0908 19:35:38.872987  4937 net.cpp:67] Creating Layer pool2
I0908 19:35:38.872989  4937 net.cpp:394] pool2 <- conv2_2
I0908 19:35:38.872994  4937 net.cpp:356] pool2 -> pool2
I0908 19:35:38.873001  4937 net.cpp:96] Setting up pool2
I0908 19:35:38.873005  4937 net.cpp:103] Top shape: 1 128 81 81 (839808)
I0908 19:35:38.873009  4937 layer_factory.hpp:78] Creating layer conv3_1
I0908 19:35:38.873013  4937 net.cpp:67] Creating Layer conv3_1
I0908 19:35:38.873018  4937 net.cpp:394] conv3_1 <- pool2
I0908 19:35:38.873021  4937 net.cpp:356] conv3_1 -> conv3_1
I0908 19:35:38.873026  4937 net.cpp:96] Setting up conv3_1
I0908 19:35:38.873524  4937 net.cpp:103] Top shape: 1 256 81 81 (1679616)
I0908 19:35:38.873540  4937 layer_factory.hpp:78] Creating layer relu3_1
I0908 19:35:38.873548  4937 net.cpp:67] Creating Layer relu3_1
I0908 19:35:38.873553  4937 net.cpp:394] relu3_1 <- conv3_1
I0908 19:35:38.873559  4937 net.cpp:345] relu3_1 -> conv3_1 (in-place)
I0908 19:35:38.873566  4937 net.cpp:96] Setting up relu3_1
I0908 19:35:38.873571  4937 net.cpp:103] Top shape: 1 256 81 81 (1679616)
I0908 19:35:38.873575  4937 layer_factory.hpp:78] Creating layer conv3_2
I0908 19:35:38.873582  4937 net.cpp:67] Creating Layer conv3_2
I0908 19:35:38.873587  4937 net.cpp:394] conv3_2 <- conv3_1
I0908 19:35:38.873594  4937 net.cpp:356] conv3_2 -> conv3_2
I0908 19:35:38.873601  4937 net.cpp:96] Setting up conv3_2
I0908 19:35:38.874361  4937 net.cpp:103] Top shape: 1 256 81 81 (1679616)
I0908 19:35:38.874377  4937 layer_factory.hpp:78] Creating layer relu3_2
I0908 19:35:38.874383  4937 net.cpp:67] Creating Layer relu3_2
I0908 19:35:38.874387  4937 net.cpp:394] relu3_2 <- conv3_2
I0908 19:35:38.874393  4937 net.cpp:345] relu3_2 -> conv3_2 (in-place)
I0908 19:35:38.874398  4937 net.cpp:96] Setting up relu3_2
I0908 19:35:38.874402  4937 net.cpp:103] Top shape: 1 256 81 81 (1679616)
I0908 19:35:38.874405  4937 layer_factory.hpp:78] Creating layer conv3_3
I0908 19:35:38.874410  4937 net.cpp:67] Creating Layer conv3_3
I0908 19:35:38.874413  4937 net.cpp:394] conv3_3 <- conv3_2
I0908 19:35:38.874418  4937 net.cpp:356] conv3_3 -> conv3_3
I0908 19:35:38.874424  4937 net.cpp:96] Setting up conv3_3
I0908 19:35:38.875470  4937 net.cpp:103] Top shape: 1 256 81 81 (1679616)
I0908 19:35:38.875486  4937 layer_factory.hpp:78] Creating layer relu3_3
I0908 19:35:38.875495  4937 net.cpp:67] Creating Layer relu3_3
I0908 19:35:38.875499  4937 net.cpp:394] relu3_3 <- conv3_3
I0908 19:35:38.875504  4937 net.cpp:345] relu3_3 -> conv3_3 (in-place)
I0908 19:35:38.875510  4937 net.cpp:96] Setting up relu3_3
I0908 19:35:38.875514  4937 net.cpp:103] Top shape: 1 256 81 81 (1679616)
I0908 19:35:38.875517  4937 layer_factory.hpp:78] Creating layer pool3
I0908 19:35:38.875524  4937 net.cpp:67] Creating Layer pool3
I0908 19:35:38.875526  4937 net.cpp:394] pool3 <- conv3_3
I0908 19:35:38.875531  4937 net.cpp:356] pool3 -> pool3
I0908 19:35:38.875536  4937 net.cpp:96] Setting up pool3
I0908 19:35:38.875541  4937 net.cpp:103] Top shape: 1 256 41 41 (430336)
I0908 19:35:38.875545  4937 layer_factory.hpp:78] Creating layer conv4_1
I0908 19:35:38.875550  4937 net.cpp:67] Creating Layer conv4_1
I0908 19:35:38.875552  4937 net.cpp:394] conv4_1 <- pool3
I0908 19:35:38.875589  4937 net.cpp:356] conv4_1 -> conv4_1
I0908 19:35:38.875597  4937 net.cpp:96] Setting up conv4_1
I0908 19:35:38.876833  4937 net.cpp:103] Top shape: 1 512 41 41 (860672)
I0908 19:35:38.876854  4937 layer_factory.hpp:78] Creating layer relu4_1
I0908 19:35:38.876862  4937 net.cpp:67] Creating Layer relu4_1
I0908 19:35:38.876865  4937 net.cpp:394] relu4_1 <- conv4_1
I0908 19:35:38.876870  4937 net.cpp:345] relu4_1 -> conv4_1 (in-place)
I0908 19:35:38.876876  4937 net.cpp:96] Setting up relu4_1
I0908 19:35:38.876880  4937 net.cpp:103] Top shape: 1 512 41 41 (860672)
I0908 19:35:38.876883  4937 layer_factory.hpp:78] Creating layer conv4_2
I0908 19:35:38.876888  4937 net.cpp:67] Creating Layer conv4_2
I0908 19:35:38.876891  4937 net.cpp:394] conv4_2 <- conv4_1
I0908 19:35:38.876895  4937 net.cpp:356] conv4_2 -> conv4_2
I0908 19:35:38.876919  4937 net.cpp:96] Setting up conv4_2
I0908 19:35:38.878768  4937 net.cpp:103] Top shape: 1 512 41 41 (860672)
I0908 19:35:38.878796  4937 layer_factory.hpp:78] Creating layer relu4_2
I0908 19:35:38.878803  4937 net.cpp:67] Creating Layer relu4_2
I0908 19:35:38.878806  4937 net.cpp:394] relu4_2 <- conv4_2
I0908 19:35:38.878811  4937 net.cpp:345] relu4_2 -> conv4_2 (in-place)
I0908 19:35:38.878818  4937 net.cpp:96] Setting up relu4_2
I0908 19:35:38.878820  4937 net.cpp:103] Top shape: 1 512 41 41 (860672)
I0908 19:35:38.878824  4937 layer_factory.hpp:78] Creating layer conv4_3
I0908 19:35:38.878829  4937 net.cpp:67] Creating Layer conv4_3
I0908 19:35:38.878831  4937 net.cpp:394] conv4_3 <- conv4_2
I0908 19:35:38.878836  4937 net.cpp:356] conv4_3 -> conv4_3
I0908 19:35:38.878841  4937 net.cpp:96] Setting up conv4_3
I0908 19:35:38.881008  4937 net.cpp:103] Top shape: 1 512 41 41 (860672)
I0908 19:35:38.881036  4937 layer_factory.hpp:78] Creating layer relu4_3
I0908 19:35:38.881047  4937 net.cpp:67] Creating Layer relu4_3
I0908 19:35:38.881050  4937 net.cpp:394] relu4_3 <- conv4_3
I0908 19:35:38.881057  4937 net.cpp:345] relu4_3 -> conv4_3 (in-place)
I0908 19:35:38.881063  4937 net.cpp:96] Setting up relu4_3
I0908 19:35:38.881067  4937 net.cpp:103] Top shape: 1 512 41 41 (860672)
I0908 19:35:38.881070  4937 layer_factory.hpp:78] Creating layer pool4
I0908 19:35:38.881075  4937 net.cpp:67] Creating Layer pool4
I0908 19:35:38.881079  4937 net.cpp:394] pool4 <- conv4_3
I0908 19:35:38.881083  4937 net.cpp:356] pool4 -> pool4
I0908 19:35:38.881093  4937 net.cpp:96] Setting up pool4
I0908 19:35:38.881098  4937 net.cpp:103] Top shape: 1 512 41 41 (860672)
I0908 19:35:38.881101  4937 layer_factory.hpp:78] Creating layer conv5_1
I0908 19:35:38.881106  4937 net.cpp:67] Creating Layer conv5_1
I0908 19:35:38.881111  4937 net.cpp:394] conv5_1 <- pool4
I0908 19:35:38.881115  4937 net.cpp:356] conv5_1 -> conv5_1
I0908 19:35:38.881121  4937 net.cpp:96] Setting up conv5_1
I0908 19:35:38.883303  4937 net.cpp:103] Top shape: 1 512 41 41 (860672)
I0908 19:35:38.883327  4937 layer_factory.hpp:78] Creating layer relu5_1
I0908 19:35:38.883334  4937 net.cpp:67] Creating Layer relu5_1
I0908 19:35:38.883339  4937 net.cpp:394] relu5_1 <- conv5_1
I0908 19:35:38.883344  4937 net.cpp:345] relu5_1 -> conv5_1 (in-place)
I0908 19:35:38.883349  4937 net.cpp:96] Setting up relu5_1
I0908 19:35:38.883352  4937 net.cpp:103] Top shape: 1 512 41 41 (860672)
I0908 19:35:38.883354  4937 layer_factory.hpp:78] Creating layer conv5_2
I0908 19:35:38.883360  4937 net.cpp:67] Creating Layer conv5_2
I0908 19:35:38.883363  4937 net.cpp:394] conv5_2 <- conv5_1
I0908 19:35:38.883368  4937 net.cpp:356] conv5_2 -> conv5_2
I0908 19:35:38.883371  4937 net.cpp:96] Setting up conv5_2
I0908 19:35:38.884996  4937 net.cpp:103] Top shape: 1 512 41 41 (860672)
I0908 19:35:38.885022  4937 layer_factory.hpp:78] Creating layer relu5_2
I0908 19:35:38.885031  4937 net.cpp:67] Creating Layer relu5_2
I0908 19:35:38.885064  4937 net.cpp:394] relu5_2 <- conv5_2
I0908 19:35:38.885071  4937 net.cpp:345] relu5_2 -> conv5_2 (in-place)
I0908 19:35:38.885078  4937 net.cpp:96] Setting up relu5_2
I0908 19:35:38.885082  4937 net.cpp:103] Top shape: 1 512 41 41 (860672)
I0908 19:35:38.885085  4937 layer_factory.hpp:78] Creating layer conv5_3
I0908 19:35:38.885090  4937 net.cpp:67] Creating Layer conv5_3
I0908 19:35:38.885093  4937 net.cpp:394] conv5_3 <- conv5_2
I0908 19:35:38.885099  4937 net.cpp:356] conv5_3 -> conv5_3
I0908 19:35:38.885105  4937 net.cpp:96] Setting up conv5_3
I0908 19:35:38.886770  4937 net.cpp:103] Top shape: 1 512 41 41 (860672)
I0908 19:35:38.886785  4937 layer_factory.hpp:78] Creating layer relu5_3
I0908 19:35:38.886790  4937 net.cpp:67] Creating Layer relu5_3
I0908 19:35:38.886793  4937 net.cpp:394] relu5_3 <- conv5_3
I0908 19:35:38.886798  4937 net.cpp:345] relu5_3 -> conv5_3 (in-place)
I0908 19:35:38.886803  4937 net.cpp:96] Setting up relu5_3
I0908 19:35:38.886806  4937 net.cpp:103] Top shape: 1 512 41 41 (860672)
I0908 19:35:38.886834  4937 layer_factory.hpp:78] Creating layer pool5
I0908 19:35:38.886840  4937 net.cpp:67] Creating Layer pool5
I0908 19:35:38.886843  4937 net.cpp:394] pool5 <- conv5_3
I0908 19:35:38.886848  4937 net.cpp:356] pool5 -> pool5
I0908 19:35:38.886854  4937 net.cpp:96] Setting up pool5
I0908 19:35:38.886860  4937 net.cpp:103] Top shape: 1 512 41 41 (860672)
I0908 19:35:38.886863  4937 layer_factory.hpp:78] Creating layer pool5a
I0908 19:35:38.886874  4937 net.cpp:67] Creating Layer pool5a
I0908 19:35:38.886878  4937 net.cpp:394] pool5a <- pool5
I0908 19:35:38.886883  4937 net.cpp:356] pool5a -> pool5a
I0908 19:35:38.886888  4937 net.cpp:96] Setting up pool5a
I0908 19:35:38.886891  4937 net.cpp:103] Top shape: 1 512 41 41 (860672)
I0908 19:35:38.886894  4937 layer_factory.hpp:78] Creating layer fc6
I0908 19:35:38.886899  4937 net.cpp:67] Creating Layer fc6
I0908 19:35:38.886903  4937 net.cpp:394] fc6 <- pool5a
I0908 19:35:38.886907  4937 net.cpp:356] fc6 -> fc6
I0908 19:35:38.886912  4937 net.cpp:96] Setting up fc6
I0908 19:35:38.890564  4937 net.cpp:103] Top shape: 1 1024 41 41 (1721344)
I0908 19:35:38.890590  4937 layer_factory.hpp:78] Creating layer relu6
I0908 19:35:38.890599  4937 net.cpp:67] Creating Layer relu6
I0908 19:35:38.890604  4937 net.cpp:394] relu6 <- fc6
I0908 19:35:38.890609  4937 net.cpp:345] relu6 -> fc6 (in-place)
I0908 19:35:38.890616  4937 net.cpp:96] Setting up relu6
I0908 19:35:38.890619  4937 net.cpp:103] Top shape: 1 1024 41 41 (1721344)
I0908 19:35:38.890622  4937 layer_factory.hpp:78] Creating layer drop6
I0908 19:35:38.890627  4937 net.cpp:67] Creating Layer drop6
I0908 19:35:38.890630  4937 net.cpp:394] drop6 <- fc6
I0908 19:35:38.890635  4937 net.cpp:345] drop6 -> fc6 (in-place)
I0908 19:35:38.890638  4937 net.cpp:96] Setting up drop6
I0908 19:35:38.890642  4937 net.cpp:103] Top shape: 1 1024 41 41 (1721344)
I0908 19:35:38.890646  4937 layer_factory.hpp:78] Creating layer fc7
I0908 19:35:38.890650  4937 net.cpp:67] Creating Layer fc7
I0908 19:35:38.890653  4937 net.cpp:394] fc7 <- fc6
I0908 19:35:38.890658  4937 net.cpp:356] fc7 -> fc7
I0908 19:35:38.890663  4937 net.cpp:96] Setting up fc7
I0908 19:35:38.891654  4937 net.cpp:103] Top shape: 1 1024 41 41 (1721344)
I0908 19:35:38.891672  4937 layer_factory.hpp:78] Creating layer relu7
I0908 19:35:38.891680  4937 net.cpp:67] Creating Layer relu7
I0908 19:35:38.891683  4937 net.cpp:394] relu7 <- fc7
I0908 19:35:38.891691  4937 net.cpp:345] relu7 -> fc7 (in-place)
I0908 19:35:38.891697  4937 net.cpp:96] Setting up relu7
I0908 19:35:38.891700  4937 net.cpp:103] Top shape: 1 1024 41 41 (1721344)
I0908 19:35:38.891703  4937 layer_factory.hpp:78] Creating layer drop7
I0908 19:35:38.891708  4937 net.cpp:67] Creating Layer drop7
I0908 19:35:38.891711  4937 net.cpp:394] drop7 <- fc7
I0908 19:35:38.891716  4937 net.cpp:345] drop7 -> fc7 (in-place)
I0908 19:35:38.891719  4937 net.cpp:96] Setting up drop7
I0908 19:35:38.891723  4937 net.cpp:103] Top shape: 1 1024 41 41 (1721344)
I0908 19:35:38.891726  4937 layer_factory.hpp:78] Creating layer fc8_food17
I0908 19:35:38.891732  4937 net.cpp:67] Creating Layer fc8_food17
I0908 19:35:38.891736  4937 net.cpp:394] fc8_food17 <- fc7
I0908 19:35:38.891741  4937 net.cpp:356] fc8_food17 -> fc8_food17
I0908 19:35:38.891746  4937 net.cpp:96] Setting up fc8_food17
I0908 19:35:38.892060  4937 net.cpp:103] Top shape: 1 18 41 41 (30258)
I0908 19:35:38.892066  4937 layer_factory.hpp:78] Creating layer fc8_food17_fc8_food17_0_split
I0908 19:35:38.892071  4937 net.cpp:67] Creating Layer fc8_food17_fc8_food17_0_split
I0908 19:35:38.892074  4937 net.cpp:394] fc8_food17_fc8_food17_0_split <- fc8_food17
I0908 19:35:38.892078  4937 net.cpp:356] fc8_food17_fc8_food17_0_split -> fc8_food17_fc8_food17_0_split_0
I0908 19:35:38.892086  4937 net.cpp:356] fc8_food17_fc8_food17_0_split -> fc8_food17_fc8_food17_0_split_1
I0908 19:35:38.892091  4937 net.cpp:96] Setting up fc8_food17_fc8_food17_0_split
I0908 19:35:38.892096  4937 net.cpp:103] Top shape: 1 18 41 41 (30258)
I0908 19:35:38.892098  4937 net.cpp:103] Top shape: 1 18 41 41 (30258)
I0908 19:35:38.892124  4937 layer_factory.hpp:78] Creating layer label_shrink
I0908 19:35:38.892138  4937 net.cpp:67] Creating Layer label_shrink
I0908 19:35:38.892140  4937 net.cpp:394] label_shrink <- label
I0908 19:35:38.892145  4937 net.cpp:356] label_shrink -> label_shrink
I0908 19:35:38.892150  4937 net.cpp:96] Setting up label_shrink
I0908 19:35:38.892154  4937 net.cpp:103] Top shape: 1 1 41 41 (1681)
I0908 19:35:38.892158  4937 layer_factory.hpp:78] Creating layer label_shrink_label_shrink_0_split
I0908 19:35:38.892163  4937 net.cpp:67] Creating Layer label_shrink_label_shrink_0_split
I0908 19:35:38.892166  4937 net.cpp:394] label_shrink_label_shrink_0_split <- label_shrink
I0908 19:35:38.892170  4937 net.cpp:356] label_shrink_label_shrink_0_split -> label_shrink_label_shrink_0_split_0
I0908 19:35:38.892175  4937 net.cpp:356] label_shrink_label_shrink_0_split -> label_shrink_label_shrink_0_split_1
I0908 19:35:38.892180  4937 net.cpp:96] Setting up label_shrink_label_shrink_0_split
I0908 19:35:38.892184  4937 net.cpp:103] Top shape: 1 1 41 41 (1681)
I0908 19:35:38.892186  4937 net.cpp:103] Top shape: 1 1 41 41 (1681)
I0908 19:35:38.892189  4937 layer_factory.hpp:78] Creating layer loss
I0908 19:35:38.892204  4937 net.cpp:67] Creating Layer loss
I0908 19:35:38.892208  4937 net.cpp:394] loss <- fc8_food17_fc8_food17_0_split_0
I0908 19:35:38.892212  4937 net.cpp:394] loss <- label_shrink_label_shrink_0_split_0
I0908 19:35:38.892220  4937 net.cpp:356] loss -> (automatic)
I0908 19:35:38.892225  4937 net.cpp:96] Setting up loss
I0908 19:35:38.892230  4937 softmax_loss_layer.cpp:40] Weight_Loss file is not provided. Assign all one to it.
I0908 19:35:38.892235  4937 net.cpp:103] Top shape: 1 1 1 1 (1)
I0908 19:35:38.892240  4937 net.cpp:109]     with loss weight 1
I0908 19:35:38.892263  4937 layer_factory.hpp:78] Creating layer accuracy
I0908 19:35:38.892271  4937 net.cpp:67] Creating Layer accuracy
I0908 19:35:38.892273  4937 net.cpp:394] accuracy <- fc8_food17_fc8_food17_0_split_1
I0908 19:35:38.892277  4937 net.cpp:394] accuracy <- label_shrink_label_shrink_0_split_1
I0908 19:35:38.892282  4937 net.cpp:356] accuracy -> accuracy
I0908 19:35:38.892287  4937 net.cpp:96] Setting up accuracy
I0908 19:35:38.892293  4937 net.cpp:103] Top shape: 1 1 1 3 (3)
I0908 19:35:38.892297  4937 net.cpp:172] accuracy does not need backward computation.
I0908 19:35:38.892300  4937 net.cpp:170] loss needs backward computation.
I0908 19:35:38.892303  4937 net.cpp:172] label_shrink_label_shrink_0_split does not need backward computation.
I0908 19:35:38.892309  4937 net.cpp:172] label_shrink does not need backward computation.
I0908 19:35:38.892313  4937 net.cpp:170] fc8_food17_fc8_food17_0_split needs backward computation.
…
